Emotions/opensmile_preds/AttenVec/IEMOCAP/Model/atten_w2_val.npy (npy, 135328 bytes, 1 tensors)

array f4 [260, 130]
00000000: bfa5 ffbc 526d e5bd b778 4a3d e856 403d
00000010: 75dd 973d eb0e be3d ebb7 eabd 82ec b73d
00000020: 21b0 74bd ee7d ad3d 89ed 923d a39b 2f3d
00000030: 5472 2cbd 99b5 1d3d 78c1 debd 0bb0 cc3c
00000040: 1397 a5bd 01b7 a1bd addd 9ebd 51f8 913d
00000050: ff1a e43d 56be eb3d d162 c03d fbd2 2e3d
00000060: 091f 2e3c 9c4e cd3d 75bb 8cbc 60be 793d
00000070: c742 8bbb bc1a 843c da92 843d d860 dabd
00000080: fad4 b23c ba54 303d 3565 ef3d 29ab f1bd
00000090: 3682 173c 0da4 a83d 2856 b13c 574e 61bd
000000a0: c308 f33d 7978 273d e124 bd3c 5d83 ed3d
000000b0: 1267 13bd bd1f 3dbd 765d 803d 709b 853d
000000c0: 2bdc ca3d 4c3b be3d ba8c 893d ae27 a2bd
000000d0: 3528 a4bb 4a65 81bc c050 503c 0590 9fbc
000000e0: 6b9f b8bd 180e c8bc c5f2 8abd 8042 d2bc
000000f0: 6a02 453d 69e8 933d e2bc ebbc 3fab eb3d
00000100: dc1f 32bd 7821 65bd 2d96 f8bd f9c0 2e3d
00000110: 21b9 f0bd ef2d eebc b3f9 063e a50f 193d
00000120: 1acb 2abd 910e 94bd f135 873d 66b4 b0bd
00000130: dcb0 573d a443 ec3d cf57 b0bb e1e1 8fbc
00000140: 4cdb 62bd 1d83 6f3d 1313 9d3b 5480 6dbd
00000150: 4a4a 0bbc 87f5 cbbd f1c6 0ebd f429 8abc
00000160: 7e19 e9bb 4604 48bd 2251 cfbd 5f2b bfbd
00000170: 39c9 be3c 966a e6bc f473 e3bc 093f 74bd
00000180: df9e 993d 388a d3bd 6e44 01bc a2fa 92bd
00000190: 4945 553d 726e 67bd 3335 69bd 63d9 cdbc
000001a0: 12b5 11bd fbfb b23a aaaf b93d 3431 2bbd
000001b0: 04f1 6d3d d81b 043d e698 6ebd 1cec 753d
000001c0: 33ef 7dbd 3dfe e73d 17d3 8b3d c538 48bb
000001d0: 8ecb 983d cadd 80bd e16c 653d f99c 05be
000001e0: 7791 1ebd ac7f 8fbd eaa5 06bd 8cc6 48bd
000001f0: 9c55 f13b 21a5 33bc 60da d9bc 3b69 dabd
00000200: 158d a2bd 9e10 a7bd ab7b ec3d ee96 e33c
00000210: 7a91 9d3d ef4c 5fbd 2e23 f0bd 5f17 fc3d
00000220: 82f1 cdbd ab8e a6bd 4b46 a3bd 0fe3 853d
00000230: 67ef 923d 8507 d93d 7af3 9c3d 2263 b3bd
00000240: 4fac cd3d 9d56 bbbd 9035 cbbd 8f1b 693c
00000250: 44ef c43d 1b1e dbbc 0b7a 01be 4804 533d
00000260: 3ce9 e03c 2997 9cbc 0616 473d 2b75 923c
00000270: 81d9 79bd 3439 f3bd adfe 95bd 24b9 56bd
00000280: be89 fcbc d037 cdbd 482f 0d3d 3022 82bd
00000290: 4130 763d 7822 973d bcd2 c4bd a121 833d
000002a0: 5c1f 17bd 757f 25bd 66fe 763d 8257 a13d
000002b0: c0f7 75ba 5e57 433d a9af dfbc 4b56 1a3d
000002c0: f4d0 acbc 9e31 953c 952c 61bd ca94 323d
000002d0: 8d44 c2bd 7bc8 3c3d f634 f83d 915e 53bd
000002e0: 006f db3d c316 d7bd 61d6 c23d 0b93 123d
000002f0: 1f91 183d 8cd0 d8bd f729 e2bd ce07 e33b
00000300: 3c82 b2bd 9611 96bd f45d 50bd d4a3 38bd
00000310: 97c1 d63d 5e89 c5bc 86eb 8abd b88d 8f3d
00000320: 697e 4e3d 69b7 bc3d d2df d8bd 07d8 0dbd
00000330: f021 c4bd e913 e13d 71f3 683c 6d88 703d
00000340: 4541 f63b e687 813d 3248 083d 5391 b4bd
00000350: 8b25 d03c 2ff8 6fbc 6663 aa3d 8a47 da3d
00000360: 174b f6bd b7a3 2bbc 8775 18bc 6fa1 f0bc
00000370: 2566 a4bd c169 e13d ec9c 13bd f687 be3b
00000380: 21e4 90bc 1476 b23d e0f5 943d b4f1 0fbc
00000390: 75be 0c3e 50a7 783d b106 a43d 37ba 8abd
000003a0: c1d6 a4bd ebb1 2dbd e971 0ebd 2320 ab3d
000003b0: 69e7 6f3d 4e00 a8bc b7cf 253d dbd4 48bc
000003c0: e5dd 00be ab3f ccbd 1f02 1a3d 9617 5b3d
000003d0: 39b7 1d3d 7f8e a43c e331 46bd c654 3a3b
000003e0: 0799 51bc 297e 423d 5a6f b4bd 6cb6 df3a
000003f0: e476 ce3d eb35 77bd 1e97 0bbd c041 ba3c
-0.031206964 -0.11202492 0.04943153 0.04695788 0.074152865 0.09280189 -0.11460861 0.08980657
-0.059738282 0.08471285 0.071742125 0.042873036 -0.04210122 0.038503263 -0.10876745 0.024986288
-0.08085456 -0.07896233 -0.07757125 0.07127441 0.111379616 0.11510913 0.09393848 0.042681675
0.010627517 0.10024759 -0.01717923 0.06097257 -0.004249904 0.01612603 0.06473322 -0.10663003
0.02183007 0.04304955 0.116892256 -0.11800224 0.009247353 0.08234415 0.021647528 -0.05500635
0.118669055 0.040886376 0.023088874 0.11597321 -0.035986967 -0.046172846 0.06267826 0.06523788
0.09905275 0.09288654 0.067162946 -0.079177245 -0.005009676 -0.015795369 0.012714565 -0.019477854
-0.090147816 -0.024420783 -0.06784586 -0.025666475 0.048098005 0.07222063 -0.02877659 0.11507272
-0.043487415 -0.05594012 -0.12138019 0.0426645 -0.117540605 -0.029074637 0.1318119 0.037368435
-0.0416976 -0.07229341 0.066020854 -0.08628158 0.0526589 0.11536339 -0.0053815614 -0.017563762
-0.05538492 0.05847465 0.0047935336 -0.05798371 -0.008501599 -0.0995894 -0.034857694 -0.016865708
-0.0071136346 -0.0488322 -0.10122897 -0.09334444 0.02328931 -0.028126996 -0.027765252 -0.059630428
0.075010054 -0.103290975 -0.00788985 -0.07176711 0.05206803 -0.056501813 -0.0569355 -0.025128072
-0.035573073 0.0013655418 0.090667084 -0.04179497 0.05809118 0.032253116 -0.058251284 0.060039625
-0.061995696 0.11327789 0.068273716 -0.0030551415 0.074607 -0.06292303 0.05601204 -0.13048162
-0.038712945 -0.07006773 -0.03287307 -0.049017474 0.0073649418 -0.010964663 -0.026593387 -0.10664602
-0.079370655 -0.08157466 0.11547025 0.02778193 0.07693763 -0.05451673 -0.1172546 0.12309145
-0.100558296 -0.081326805 -0.07972392 0.065374486 0.071745686 0.10597137 0.07663627 -0.087591425
0.10042631 -0.091473795 -0.099223256 0.014227762 0.09615949 -0.026747754 -0.12644212 0.051517755
0.027454965 -0.019115048 0.048604988 0.017878136 -0.060998444 -0.11876145 -0.07323966 -0.052422658
-0.0308274 -0.10020411 0.03446892 -0.06354177 0.060104612 0.07379621 -0.09610507 0.064028986
-0.03689514 -0.040404756 0.060301207 0.07878019 -0.0009382926 0.04769074 -0.027305441 0.03767995
-0.02109573 0.018212136 -0.054974157 0.043598928 -0.09485731 0.04608963 0.121194765 -0.051603857
0.10714531 -0.10502388 0.09513546 0.035784762 0.037247773 -0.10586652 -0.110431604 0.0069284206
-0.087162465 -0.07327573 -0.05087085 -0.045078114 0.10486143 -0.024113353 -0.06783204 0.070094526
0.050413523 0.0921467 -0.10589565 -0.034629848 -0.095767856 0.10990126 0.014218197 0.058723856
0.007515105 0.06324749 0.033271976 -0.08816781 0.025408527 -0.014646574 0.0831974 0.10658176
-0.12026041 -0.010476044 -0.009305364 -0.029373853 -0.08027295 0.11006499 -0.036038324 0.0058145477
-0.017686905 0.08713928 0.072734594 -0.008785654 0.13744529 0.060706437 0.08009089 -0.06773799
-0.080487736 -0.042406004 -0.034776602 0.08355739 0.0585703 -0.020507958 0.040481295 -0.01225778
-0.12584646 -0.09973081 0.03759968 0.05348929 0.038504813 0.020087479 -0.04838742 0.0028431877
-0.012792832 0.047483597 -0.08810301 0.0017067916 0.1008127 -0.060354155 -0.034079663 0.02273643
