Emotions/opensmile_preds/AttenVec/IEMOCAP/Model/atten_w2_act.npy (npy, 135328 bytes, 1 tensors)

array f4 [260, 130]
00000000: d95a fabc 0210 a13c 6d33 363c 28fa e6bd
00000010: ae21 c3bd 8965 22bd 78f3 1bbc 1919 09bc
00000020: 5317 01be de6d dbbd 0df3 d4bc cfe9 9b3c
00000030: fbb0 9a3d b43f 0b3e 2aeb bcbc b1a8 fbbd
00000040: bb6d e0bc 1368 9abd ef84 e6bd 6e0e 533c
00000050: 8d46 193c a0c0 e53d 1620 c03d 5c0a 8dbc
00000060: 0738 3cbd 8d8e f83d 39b8 f53d 3c1f c4bd
00000070: cb97 7b3d af74 45bd a230 7abd 1208 6fbd
00000080: d3c4 c33d c3bc 543d 30df 9dbd c748 173d
00000090: ad8d 55bd fe61 bdbd 4b39 45bd e712 d23d
000000a0: 09b5 9f3d d6fa c53d cff7 e63c 6944 993d
000000b0: 1e0c e43c c16e 05bd 2e65 173c 758f 03be
000000c0: 863c ad3c 1487 953a c8cf e8bd aa8f d8bd
000000d0: b162 eabd d690 a8bc 8b58 c6bd 35ba e03d
000000e0: be6f ff3c e12b 8ebd dbd4 0e3d 7af2 7f3d
000000f0: f8ff f53d 088b 233d 60d0 58bc 3145 493d
00000100: 1e95 c63b 63f7 cf3d 398a 7dbd d1f9 563d
00000110: 3c44 b5bd d206 d13d d37c adbd 1c62 523d
00000120: 59dc ab3c 4c6f 283d 027c 1dbd 4a01 38bd
00000130: 4679 84bd 177e 7a3c ddc8 d63c 4141 883d
00000140: b0f3 973c c8f9 01be dced d73d 11f9 9e3d
00000150: 0eca 8fbd 8a8b df3d 5813 d23d 5690 8fbc
00000160: 38da 0b3e dde7 fe3d 614d a13c bd18 493d
00000170: dad2 dabd 3baa a23d 9dfe f13c 4b02 e0bd
00000180: 8c1a 073e bf3c dbbc 8dfb 003d 1eb4 a13d
00000190: 4df3 de3d f96d 563d ba2f fa3b 00ff e33b
000001a0: 9fc0 f73d 8c6b 06bd af74 883d 314d 443d
000001b0: 200e 9d3d 6dea c8bd 47e5 d8bd db9f 9abd
000001c0: 02a5 eabd 5258 a03c db23 b3bc 0369 dbba
000001d0: 86aa 913d a466 d53d 1101 c23c e672 b3bd
000001e0: 51fc ab3d 98d6 32bd 7360 963c 8c42 5bbc
000001f0: 9586 773d 7193 a33b 5ffe 9f3b de7d b2bd
00000200: 72dc 333d b3df 07bd 2372 363d 7391 a7bc
00000210: 54aa d93d 82f6 3ebd e0ae 1bbd 3cf9 9a3d
00000220: f253 00bd 4a46 913d c829 bcbd 7662 2ebd
00000230: 35fc 063a 4ae1 003e 1457 42bc 1bbc c4bd
00000240: 340b 96bd f678 fa3c 53b3 493d 8320 90bb
00000250: 714b 9c3c 8012 e3bc c72a be3c 3785 d93d
00000260: 2452 153c e935 fc39 fd50 903d c9ab 153d
00000270: ed4f 163d 27c9 253b 31d4 ad3d 6074 7bbd
00000280: 8d35 cf3c 8edf 853c f19c ce3d ea40 febb
00000290: 955d 2dbd de42 653d ebf1 49ba d88a da3d
000002a0: e59f 18bc d699 76bd 68f9 84bd 2161 a5bd
000002b0: 2a82 8c3c 8a9d d3bd 4756 3fbc 6ebd 583d
000002c0: 5a54 7c3d 28bc e7bd 5efd ab3d 491f 8a3d
000002d0: 7578 8f3c 7b39 063d db75 50bd 9b94 673b
000002e0: b04a 473d 39fa 913b f6cc 8d3d 09c3 b03d
000002f0: e65d a0ba 1de4 be3d 2136 9dbc 542f aebd
00000300: d678 8e3d 4edf ea3d bb40 d6bd 3235 393d
00000310: 6b9a c83c 1881 9dbd 836a 9ebd 0fbe 363d
00000320: 64d0 2f3d 128e 17bd e5f1 1dbd 10f3 f2bd
00000330: b670 b13d cb86 96bd f7db de3d 1663 babd
00000340: 29a6 e83d 1a8a ca3c 203d 863c 1ef5 b9bc
00000350: 0e6f 9bbd 0604 85bc f9ef bebd 3b36 b13c
00000360: 289a b03d 56a5 f6bd 9668 b23d 3971 12bc
00000370: 24f7 adbd fdee e0bc cdc3 433d 92a7 a23d
00000380: f442 853c 71d6 ecbd 53e9 d1bd 3839 05bc
00000390: 0710 953d 313e febd 8543 34bb dc5b 523d
000003a0: f885 053d b8f3 db3b 68e4 ee3c dd56 46bd
000003b0: f230 58bd 3330 c43d 8cf8 c2bd 44f9 93bd
000003c0: a374 94bc 64de 1abd 3131 a43a d23b e43d
000003d0: 493c 00bd 3ad0 ffbd 9504 533d cbe0 dfbd
000003e0: 56a0 a5bd 1f74 f6bd d992 8f3c d39e c23d
000003f0: 4029 d73c 7297 b6bd 6d75 813d 327c b3bc
-0.030560898 0.019660953 0.011120659 -0.11278182 -0.09527908 -0.039647613 -0.009518497 -0.0083678
-0.12606554 -0.10714315 -0.025994802 0.019032387 0.075532876 0.1359852 -0.023061354 -0.12288035
-0.027396074 -0.07539382 -0.11255824 0.012881858 0.0093551995 0.11218381 0.0938112 -0.017216854
-0.04595187 0.121365644 0.11998028 -0.0957627 0.061424058 -0.04820698 -0.061081536 -0.058357306
0.095590256 0.05193783 -0.07708585 0.03693464 -0.052137066 -0.09247206 -0.048150342 0.102575116
0.077982016 0.09666984 0.028194336 0.07483751 0.02783781 -0.032576326 0.009240432 -0.12847693
0.021147024 0.0011408054 -0.11367756 -0.10574277 -0.11444605 -0.020576876 -0.09684857 0.10973016
0.031181213 -0.06941963 0.034870964 0.062487103 0.12011713 0.039927512 -0.013233274 0.04913825
0.0060602566 0.10154607 -0.061899398 0.052484337 -0.08850905 0.10206379 -0.08471074 0.051363096
0.020979093 0.041121766 -0.03844834 -0.044923104 -0.064684436 0.015288851 0.026218826 0.06653071
0.018548816 -0.1269294 0.10543415 0.077623494 -0.07020961 0.10915287 0.10257596 -0.01752488
0.13657463 0.12446568 0.019690217 0.049095858 -0.10684748 0.07942625 0.029540354 -0.10937937
0.1319372 -0.026762364 0.031489898 0.07895683 0.1088625 0.05235097 0.007635084 0.0069578886
0.120972864 -0.03281741 0.06662881 0.047925178 0.0766871 -0.09810338 -0.10590606 -0.07550021
-0.11457254 0.019573364 -0.021867683 -0.001673967 0.07112603 0.10419968 0.02368215 -0.087621495
0.08397735 -0.043661684 0.018356537 -0.013382565 0.06043108 0.0049919416 0.0048826183 -0.087154135
0.043911405 -0.03317232 0.044542443 -0.020455098 0.10628191 -0.046621807 -0.03800857 0.07567069
-0.031330056 0.07093485 -0.09187657 -0.04257437 0.0005149276 0.12585941 -0.011861581 -0.09606191
-0.073263556 0.030575257 0.049243283 -0.004398407 0.019078942 -0.027718782 0.023213757 0.10621112
0.009113822 0.00048105352 0.07046697 0.03654078 0.036697317 0.0025296898 0.08487738 -0.06139028
0.02529409 0.01634195 0.10088528 -0.007759203 -0.042325575 0.055971973 -0.000770359 0.106710136
-0.009315466 -0.060205303 -0.06492883 -0.080751665 0.01715191 -0.103327826 -0.011678285 0.05291503
0.06160388 -0.11315185 0.08397935 0.067442484 0.017513493 0.03276966 -0.050893646 0.0035336378
0.048655212 0.0044548777 0.06923859 0.0863095 -0.0012235015 0.09320853 -0.01919085 -0.08505121
0.069566414 0.11468373 -0.10461565 0.045216747 0.024487695 -0.07690638 -0.07735159 0.044614848
0.042923346 -0.037000723 -0.038560767 -0.11862767 0.08664076 -0.073499285 0.10881799 -0.091009304
0.113598175 0.024724055 0.016386569 -0.022699889 -0.075895414 -0.01623727 -0.09323115 0.021632304
0.08623153 -0.12043254 0.087113544 -0.008938127 -0.08494404 -0.027457708 0.047794152 0.07942118
0.016267277 -0.11564339 -0.10249581 -0.008131318 0.072784476 -0.12414206 -0.0027506065 0.051357135
0.032598466 0.006712403 0.029161647 -0.048422683 -0.052781053 0.09579506 -0.09520063 -0.07225278
-0.018122023 -0.037809744 0.0012526867 0.11144222 -0.031307492 -0.12490888 0.05151804 -0.10931548
-0.08087222 -0.12033867 0.017526077 0.095029496 0.026264787 -0.08915605 0.06321225 -0.021909807
