Emotions/opensmile_preds/AttenVec/IEMOCAP/Model/atten_w1_val.npy (npy, 67728 bytes, 1 tensors)

array f4 [130, 130]
000000 6c 3c d2 3d 12 13 dd 3d 38 81 df bd b7 59 0d bc
       0.10265431 0.10794653 -0.109133184 -0.008627347
000010 ea b6 82 bc 5b 9c fc 3c 21 84 15 3e 49 e2 d5 bd
       -0.01595636 0.030836275 0.14601184 -0.10443551
000020 b9 01 e0 3d fa ac c6 3d 04 eb 2e 3d fc 50 91 bd
       0.109378286 0.097009614 0.042704597 -0.07095525
000030 a1 59 d7 3b 55 84 98 bd ef 9a 0e be cd 2e 13 be
       0.006571964 -0.07447115 -0.1392629 -0.14373322
000040 d5 4d 9a 3d 41 c5 d8 3d eb db e6 bd 13 43 a7 bd
       0.075343765 0.10584498 -0.11272415 -0.0816709
000050 c9 c1 8d 3d 77 1b bf bb 76 32 c3 bd 25 29 e6 3c
       0.06921727 -0.0058321315 -0.09531109 0.028095791
000060 37 f8 84 bd 9f 33 ec bb d6 e7 a6 3d 2f c2 f8 bd
       -0.06492656 -0.007208302 0.08149688 -0.121464126
000070 87 ec 6f 3d ee 67 b2 3b ec 5f 08 be d2 2c c5 bc
       0.05857518 0.0054445183 -0.13317841 -0.024069224
000080 4f 77 c7 3d 86 6f 11 3d 35 df 50 bd db 5f fa 3d
       0.09739553 0.035506748 -0.050994117 0.12225314
000090 39 80 19 be 16 be 25 bd 3a dd 6f bd 8d 49 bc bd
       -0.1499032 -0.040464483 -0.058560587 -0.09193716
0000a0 35 e5 c2 bd 34 03 b2 bd e4 2f b2 3d c1 46 14 be
       -0.09516374 -0.08692017 0.08700541 -0.14480115
0000b0 f7 09 56 3c 61 de b4 3c 13 a5 96 3a f4 f1 e8 3d
       0.013063899 0.022078695 0.0011493288 0.11374274
0000c0 4c 59 0b 3e dc af 15 3d 19 16 4d bd 70 ed b3 bd
       0.13608283 0.036544666 -0.050069902 -0.08785522
0000d0 f8 5d 86 bd 3c 55 83 bc 04 30 25 3d 65 36 73 3c
       -0.06560892 -0.016031854 0.040328994 0.014844512
0000e0 d2 c9 fb 3c df fc 0c 3e 50 fd 08 3e fb 1e 60 3d
       0.030735884 0.13768338 0.13377881 0.054717045
0000f0 a6 40 05 be fd c6 c6 3b 5c 49 52 bd e2 f8 bd 3d
       -0.13012943 0.0060662017 -0.051339492 0.09275986
000100 e2 ff f1 bd 3a e5 13 be 02 99 02 be e8 19 f9 bd
       -0.11816384 -0.14442912 -0.1275368 -0.12163144
000110 ba b3 21 bd 2d 88 10 3d 87 4e 11 be 4f e1 ac 3d
       -0.03947804 0.035286117 -0.14190112 0.08441412
000120 ef 3f b3 3c 17 cc ff 3d da 93 b7 3c 1e 26 12 be
       0.021881072 0.12490099 0.022409368 -0.14272353
000130 78 1f 03 3e 75 ce 62 3d c9 5c 63 bd 1b a0 11 3e
       0.12804973 0.055372674 -0.05550841 0.14221232
000140 d6 5a cd bd 3d fb a0 3d 1c 80 11 be 12 06 02 bd
       -0.10027091 0.0786042 -0.14209026 -0.03174407
000150 2a 8d 10 3c f2 a5 ab 3d 1c bf 94 bc ed 1d b9 bc
       0.008822719 0.08381261 -0.018157534 -0.022597278
000160 b6 e5 1a 3e d5 85 b3 bd 11 06 99 3d 65 51 23 3d
       0.1512669 -0.08765761 0.0747186 0.039872546
000170 c1 0a 1c be 75 b2 0b be 45 22 93 3d 00 15 85 bd
       -0.15238477 -0.13642295 0.07184271 -0.06498146
000180 8b bd 83 bc 1d 96 e8 bd 2e 93 16 be 2c c1 81 bc
       -0.016081592 -0.11356757 -0.14704582 -0.015839182
000190 8e b7 68 bc 46 ef 86 ba a0 70 b2 3b d3 f8 f2 3d
       -0.014203919 -0.0010294698 0.005445555 0.11863866
0001a0 75 2d c7 bd ae 71 10 3e 3e 3e 08 3e b7 fc a3 3d
       -0.09725467 0.14105865 0.13304994 0.08007186
0001b0 f5 b1 31 3d 81 c6 82 3d 64 f2 76 bc 39 c5 dc bd
       0.043382604 0.06385518 -0.015072439 -0.10779805
0001c0 5d 2d 12 3e 1d 2b 02 3e a2 60 21 3d 3f f0 9c 3d
       0.14275117 0.12711759 0.039398797 0.07663011
0001d0 06 b9 07 3d ad 6e 8f bc d8 65 c7 bc 41 1c a2 bd
       0.033135436 -0.017508829 -0.024340555 -0.07915545
0001e0 d3 e3 08 be f1 15 e6 bd 6e 90 8b 3d be 89 61 bd
       -0.13368158 -0.11234654 0.06814657 -0.055063
0001f0 3e a6 01 be 0a af dc bd ba d8 e0 3d 67 40 d1 bd
       -0.12661073 -0.107755736 0.10978837 -0.10217362
000200 6e ea d4 3d 58 27 d0 bb c3 29 bf 3d 18 4c 0a 3e
       0.103962764 -0.0063523464 0.09334137 0.1350559
000210 45 96 f3 bd 17 b5 b4 bd bb 99 67 3c 03 44 cc 3d
       -0.11893896 -0.08823603 0.014135773 0.0997391
000220 3e 95 96 bd 33 c1 7a bd db c2 5f bc 52 47 2a bd
       -0.073526844 -0.061219405 -0.013657297 -0.041571923
000230 4f 5f d6 bd 22 45 c4 bd ac 52 3b 3d ac c7 65 bd
       -0.104673974 -0.095834985 0.04573314 -0.056098625
000240 da b7 cd 3d bb be 53 bd 01 5c 8d bd a7 3a 00 be
       0.100448325 -0.051695567 -0.06902314 -0.12522374
000250 7b 61 cb 3d d7 86 8f bd a9 1d 09 bd d3 f3 c1 bd
       0.09930702 -0.070081405 -0.03347555 -0.09470334
000260 37 b5 93 3d 5b 2b 15 3e ca 4a fb bd e3 ff 0d be
       0.07212298 0.1456732 -0.12270124 -0.13867144
000270 54 7a be bd 33 a9 09 bd 45 ce 56 3d fe 2d 09 3d
       -0.09300676 -0.033608627 0.052442808 0.033491127
000280 6e d0 a9 bd 16 bb 80 3d ce 65 ce 3c 16 df 11 3e
       -0.08291708 0.06285684 0.025195029 0.14245257
000290 e8 2c 8f 3d f0 6a c5 bd eb 5a 19 be be a8 d4 3d
       0.06990987 -0.09639537 -0.14976089 0.103837475
0002a0 d8 44 68 3b 0c df d5 3d d9 86 cd 3c 57 18 0d 3e
       0.0035441425 0.104429334 0.025088714 0.13778816
0002b0 cb 00 a9 3d f2 86 0e be e2 9f f3 bc 44 1b 8d 3d
       0.08252104 -0.13918665 -0.029739324 0.06889966
0002c0 6c db 5f bc 6f 1a 67 bd c7 34 fb bd ba 8c da 3d
       -0.013663154 -0.056421693 -0.12265926 0.10671373
0002d0 a6 88 17 be 23 b1 08 be 4a 1f ff 3d 1d 5b 4b 3d
       -0.14798221 -0.13348822 0.1245714 0.04964744
0002e0 a9 ad fc bd 87 72 f0 3b 66 8a e2 3c 13 a2 8e bc
       -0.123378105 0.0073378715 0.027653884 -0.017411267
0002f0 19 14 3f 3d 77 2f 24 bd 2a b7 07 3e 37 0d a6 bd
       0.046650026 -0.04008433 0.13253465 -0.08107989
000300 e7 0e 08 bb 6a 92 56 3d 45 2a db bd da 73 fe bd
       -0.0020760836 0.052385725 -0.10701422 -0.12424441
000310 e1 da e4 3d a7 c4 f5 bc 92 1a a5 3d 26 45 06 3d
       0.1117456 -0.030000998 0.080617085 0.03278079
000320 be bf ff bd 93 84 0a be 99 ab aa bd fe b1 80 3c
       -0.12487744 -0.13527136 -0.08333511 0.015709873
000330 56 af ad bd 2d 19 ae 3d 22 26 f7 3c d1 c9 f0 3d
       -0.08480708 0.08500896 0.03016955 0.117572434
000340 8e a7 28 3d 03 5f f4 bd ed 34 01 be b6 53 37 3d
       0.041175418 -0.119321845 -0.12617846 0.044757567
000350 d1 ef 0a 3e 0f d9 f4 3c 3e 8c a4 bc 37 aa d4 bd
       0.13568045 0.029888658 -0.020086404 -0.103840284
000360 03 0f 91 bb 6e a5 1e b9 98 d9 0d be 05 c7 1a 3e
       -0.0044268384 -0.00015129682 -0.13852537 0.15114982
000370 dc 0a 0b 3e bd 65 11 3e d3 08 9c bd b7 97 a4 bd
       0.13578361 0.14198966 -0.076188706 -0.0803675
000380 49 25 0f be 06 d1 90 bd 9c f0 f4 3c 25 3e ba bd
       -0.13979067 -0.07071118 0.029899888 -0.090938844
000390 d4 2a 16 3e d2 95 b8 bd be f5 98 3c 37 ae ad bd
       0.14664775 -0.09012951 0.018671867 -0.084804945
0003a0 79 b9 0f 3e f4 b0 82 3d 1f 98 92 3d 87 5d cb bd
       0.14035596 0.063814074 0.07157921 -0.09929948
0003b0 25 45 15 3e 56 63 82 3d f4 3e f7 3c a6 1e 71 3d
       0.14577158 0.06366603 0.030181386 0.05886712
0003c0 cd 0b 4b bc d7 df 84 bc ac ba c1 bd bb 0a b2 bd
       -0.01239295 -0.016220016 -0.09459433 -0.08693453
0003d0 12 af 8d bd ac 65 e5 bd aa b3 9f 3c 50 83 11 be
       -0.06918158 -0.11201033 0.01949485 -0.14210248
0003e0 af fe 5f bd 53 9b b9 bc 02 62 a8 bd 49 61 c1 bd
       -0.054686245 -0.022657072 -0.082218185 -0.09442384
0003f0 2e 60 b9 3d 76 7c ca 3d d9 69 2f bc e1 1b 53 bc
       0.09051548 0.0988702 -0.010706388 -0.012885065
