Emotions/opensmile_preds/AttenVec/IEMOCAP/Model/atten_w2_dom.npy (npy, 135328 bytes, 1 tensors)

array f4 [260, 130]
000000 5d 66 11 bc 7c e2 96 bd 85 d1 dc 3d 2c 05 a6 bd
       -0.008874503 -0.07367417 0.1078215 -0.08106455
000010 1f be b2 bd 4a a6 ef 3d 6c bd e0 3d d3 82 92 3d
       -0.08727669 0.11701639 0.10973629 0.07153859
000020 91 e6 a7 3d cc 35 7b 3d 55 cd ee 3c 3c a4 e3 3d
       0.08198274 0.0613306 0.029150644 0.111153096
000030 b0 68 58 bd 28 58 9b bd 9d d7 d4 bd 05 8a d4 bd
       -0.052834213 -0.07585174 -0.103926875 -0.10377888
000040 10 9a 4f 3d cb e5 e3 bd ed fa ad 3d db 52 90 bd
       0.050684035 -0.11127814 0.08495126 -0.070470534
000050 2d c6 4e bd f4 e0 21 3d 0a 46 fe bd b8 d0 41 bd
       -0.050481964 0.039521173 -0.12415703 -0.04731819
000060 fd 4e b6 bc 28 cf e1 bd db f8 02 be f1 e0 6d 3d
       -0.022254461 -0.1102584 -0.12790243 0.05807585
000070 62 0f a1 bd 05 21 d0 bc 68 36 7e bd 39 7b aa bd
       -0.07864262 -0.02540637 -0.062063605 -0.08324284
000080 d6 6d 01 3d 9b 0f e8 bc ca c5 a1 3c c3 9a be bd
       0.03159889 -0.028327754 0.019747633 -0.09306862
000090 6e b3 bf 3d 01 9e cf 3d 1d 33 76 3d fb a6 9a bb
       0.09360395 0.10137559 0.06010734 -0.0047196127
0000a0 90 72 c6 bc 75 26 96 bd c9 7a c8 bd 06 81 a1 3d
       -0.02422455 -0.07331554 -0.097890444 0.078859374
0000b0 00 f5 a4 3c a7 9a 85 bd b2 b9 02 3c 28 01 ac bd
       0.020136356 -0.06523638 0.0079788435 -0.08398658
0000c0 df ee c0 3c 95 50 c6 3d fb 88 82 bd 21 4d 06 3d
       0.023551403 0.096833386 -0.06373783 0.0327884
0000d0 ea 54 de bc a4 67 42 bd 86 f0 4c bd ad d0 01 3e
       -0.0271401 -0.04746212 -0.05003407 0.1267726
0000e0 e1 70 20 3d 2e b2 ec bd e3 f8 f1 3d 3e 8f c0 bd
       0.03917015 -0.115574226 0.118150495 -0.09402321
0000f0 5d e1 af bc 02 06 48 3c 3d f9 d5 bc 59 8c 60 bb
       -0.021469766 0.012208464 -0.026119823 -0.0034263341
000100 19 c9 3e 3d 59 df 2e bb 2d 7a d9 bd 2a 2d b2 bd
       0.0465785 -0.0026683419 -0.10619006 -0.087000206
000110 09 21 44 bc 81 61 bd 3d a2 cb f2 3d a0 ba 6b bd
       -0.011970767 0.09247113 0.11855246 -0.057551026
000120 20 75 89 3d d6 f8 ac bd 3b 7b 8f 3d 2a d7 85 bd
       0.06711793 -0.08445899 0.07005926 -0.0653518
000130 f5 d8 f0 bd 4c 8b 63 3d 07 5e f0 bd 75 6f 15 3d
       -0.11760131 0.055552766 -0.11736684 0.036483247
000140 ae 5d 85 bd 9f 61 c6 3d 33 89 09 bd 9f 84 b4 bd
       -0.065120086 0.096865885 -0.03357811 -0.08814358
000150 df 47 f4 bd 44 d2 ce bd 0b 1e 05 3d 96 e3 8b 3d
       -0.11927771 -0.10098699 0.032499354 0.06830518
000160 fe d6 f0 bd ff 1e 0d bd ba 00 ff 3c 9f c9 c0 bd
       -0.117597565 -0.03445339 0.031128276 -0.09413456
000170 22 03 48 3d d6 02 bf 3c 49 9c ab bd 21 95 c0 bd
       0.048831113 0.023316782 -0.083794184 -0.09403444
000180 af 4d e8 3c da f4 02 3e 6d 13 15 bd 69 19 fd bd
       0.028357355 0.12788716 -0.03639548 -0.12358362
000190 ef e5 45 3d 4a 47 ec 3c 12 d7 8f bc ae 6e b9 bd
       0.048314985 0.028842587 -0.017558608 -0.090543136
0001a0 94 3c 07 3e ed d8 bc 3d 22 d1 92 bc cb e3 74 b9
       0.13206702 0.09221063 -0.017921988 -0.00023354513
0001b0 75 c3 97 3d ee 6d c1 3d 60 8a dd 3b 3e e5 02 3e
       0.07410327 0.094447955 0.0067608804 0.12782761
0001c0 61 91 f3 bc 58 9e a4 3d c6 fd de bd ec 28 ab 3d
       -0.029732408 0.08038014 -0.10888247 0.083574146
0001d0 f0 b7 37 bd 6a 90 5e bd b7 f4 21 3d 04 0a a7 bd
       -0.04485315 -0.054336943 0.03954002 -0.08156207
0001e0 25 70 8e bc 5a b9 0c 3d 30 d0 19 bd df dc b3 bd
       -0.017387459 0.034356453 -0.03755206 -0.08782362
0001f0 62 93 eb 3d 38 44 85 bd 33 03 82 3d 77 5b 3e 3d
       0.115027204 -0.06507152 0.063482665 0.046473946
000200 f8 69 e7 3d e7 61 b3 bd 81 a5 b3 bd 19 76 ea 3c
       0.11299509 -0.08758908 -0.08771802 0.028620766
000210 ba c8 f8 bd 02 15 ec bd 4d ba 94 3d c0 5d cd bc
       -0.121476606 -0.115274444 0.072620966 -0.025069118
000220 6c fa 28 ba 96 87 be bd 8b f7 45 bd 7f db 81 3d
       -0.0006446007 -0.09303205 -0.04833178 0.06340694
000230 2e ce ec bd 09 6b b6 bd 1a c9 bb 3d 69 59 c5 3d
       -0.11562763 -0.08907134 0.091692165 0.09636194
000240 9f 13 45 3d 64 2e 07 bd a0 c0 5f bd e2 14 98 bd
       0.048114415 -0.033003226 -0.05462706 -0.07425858
000250 2c 69 95 3c 9d 6b 4b bc e9 51 e4 3d bb e5 f0 bd
       0.018238626 -0.012415794 0.111484356 -0.117625676
000260 f5 cc 97 3d e7 5f 02 be 3e 68 d6 3d dd 82 9e bd
       0.07412139 -0.12731896 0.10469101 -0.07739804
000270 63 d1 7d bd b6 37 4e bc f2 74 ab 3d 4a a5 2f bd
       -0.061967265 -0.012586525 0.08371915 -0.04288224
000280 54 85 d4 bd 07 f1 84 bd 69 84 c2 3d a3 22 54 bc
       -0.10376993 -0.06491285 0.094979115 -0.012947711
000290 d0 ba ad 3c 57 8c 49 3d c4 30 7e bb 09 ce e4 bd
       0.021207243 0.049206104 -0.003878639 -0.111721106
0002a0 b8 0e e8 3d 06 4c e6 bc 29 0f e8 3b 80 e1 e0 bd
       0.113309324 -0.028112423 0.0070818854 -0.10980511
0002b0 58 d5 ea bd df 73 a1 bd fd 2f f1 3d 8b e9 b3 3b
       -0.11466473 -0.07883429 0.11776731 0.005490487
0002c0 8f 64 01 3e 13 d7 9d 3d 17 65 dd 3d e0 b0 84 bd
       0.12636016 0.07707038 0.10810297 -0.06479049
0002d0 7e 41 6e bc 93 85 9a bd 0b c7 3f bd 2f 86 c5 3c
       -0.014541982 -0.075450085 -0.04682068 0.024111835
0002e0 16 00 93 bc bf 8a d7 3d b6 51 bb 3d 12 6e 87 bd
       -0.017944377 0.105245106 0.091464445 -0.06612791
0002f0 c7 0c a0 bd 09 dc 86 bd 8f 4e 00 3c 80 cd 8b bd
       -0.07814937 -0.06584937 0.00783123 -0.068263054
000300 ae f7 98 bc 6f e0 98 bc f2 37 67 bd 1f 30 06 bc
       -0.01867279 -0.018661706 -0.056449838 -0.008190184
000310 7a 67 4b 3d b8 4a 2c 3d 9f 7f b9 3d 13 24 ba bb
       0.04965923 0.042063445 0.09057545 -0.00568057
000320 28 8f 38 bc 67 76 b6 bd 41 14 26 bb d7 2f 08 3c
       -0.0112646 -0.08909302 -0.0025341662 0.008312187
000330 f0 ee d8 bd a6 54 f8 bc 96 de bb bc 76 72 a7 bd
       -0.10592449 -0.030313801 -0.022933286 -0.081761286
000340 4e dc 07 be 99 c0 11 bd f8 9e ee 3d ed 1e ba 3d
       -0.13267633 -0.035584066 0.11651415 0.0908793
000350 dd 5c 2f 3c fe 8d d1 bd 55 77 75 bd c7 2f 2a bd
       0.010703293 -0.10232161 -0.059928257 -0.04154947
000360 b7 3e d6 bd 60 47 6f bc 44 79 1f 3d 8a b7 b5 3c
       -0.10461181 -0.0146044195 0.038934007 0.022182245
000370 b0 fe c8 bc 52 89 b0 bd f9 81 d5 bd de 86 bb 3d
       -0.024535507 -0.08619942 -0.10425181 0.09156583
000380 b0 9e 8a bd 3b 5b 08 bd 8c f3 8f ba 5e 70 e7 3c
       -0.067685485 -0.03329013 -0.0010982617 0.028251823
000390 e7 c6 49 bc d2 f9 70 bb 1e 4e 8d 3d 83 c9 53 bd
       -0.012315488 -0.0036769998 0.06899665 -0.05170585
0003a0 5c a2 c4 3c 20 c3 79 3d a6 27 c5 3c 3e 42 88 bd
       0.0240032 0.0609771 0.024066757 -0.0665326
0003b0 64 c2 d1 3c c5 6f 08 be dd 78 b0 bd f8 3b 18 3d
       0.025605388 -0.13323887 -0.08616803 0.037166566
0003c0 ee 16 76 3d af 15 f3 3d 18 48 e2 3b 50 d0 ed 3d
       0.06008046 0.1186937 0.006905567 0.11611998
0003d0 1b 16 a1 bd c4 15 d6 3b 82 05 d1 bc 77 c2 e1 bd
       -0.078655444 0.0065333564 -0.025515322 -0.11023419
0003e0 b7 c3 c8 bd d5 c0 e6 bc f6 0c c1 3d 57 23 95 bd
       -0.09802955 -0.028168121 0.094263 -0.07282131
0003f0 08 01 90 3d ab 65 ee 3d 03 05 87 3d c7 e1 31 3d
       0.07031447 0.116404854 0.06592753 0.04342821
