Emotions/opensmile_preds/AttenVec/IEMOCAP/Model/atten_w1_dom.npy (npy, 67728 bytes, 1 tensors)

array f4 [130, 130]
000000 7b 72 84 3d c4 09 9d bd 72 df ac 3d 4d fd 06 3e
       0.06467148 -0.07667878 0.08441056 0.13182564
000010 f7 52 5a 3d 9e e0 c3 bc a5 34 39 bc b0 c6 9a bd
       0.053301778 -0.023910817 -0.011304055 -0.07557428
000020 77 a7 91 3d aa 78 91 3d d3 34 89 3d 81 a0 c0 bc
       0.071120195 0.07103093 0.066995285 -0.023514034
000030 30 fc 2f 3d d3 f2 ff bd 91 35 d6 3d c6 c9 2b bd
       0.042965114 -0.12497487 0.10459436 -0.041940473
000040 91 b8 37 bd c3 ac 17 3d a5 c3 cb bd 6a f3 8a bc
       -0.04485375 0.037029993 -0.099494256 -0.016961772
000050 fb 30 db 3d 2d 57 88 3d 4b 1f ba bd a2 27 03 be
       0.10702702 0.066572525 -0.09088 -0.12808087
000060 10 77 01 3e 00 8f 14 3e 5f cb 01 be ab ae 7b 3d
       0.12643075 0.14507675 -0.12675236 0.061445873
000070 eb 5a f3 3d f9 59 bc 3d a0 d9 79 bd 9f a2 70 3d
       0.118825756 0.091968484 -0.06099856 0.058748838
000080 cc 0b 1a 3e 8a 67 5b 3d 8c 25 37 3d c8 62 f8 3d
       0.15043563 0.05356554 0.044713542 0.12128216
000090 39 2a ef bc 5b 89 df 3c dc 35 b5 bc b2 59 e5 3d
       -0.029194938 0.027287176 -0.022120409 0.11198749
0000a0 9e b2 00 3d 98 e9 fb 3d 40 a7 70 3c f5 46 98 3d
       0.031420343 0.12300414 0.014688313 0.07435409
0000b0 67 27 a3 3d 82 3c ee bd 6b c4 33 bd 52 b0 48 bd
       0.079665 -0.11632635 -0.04388849 -0.048996277
0000c0 5e 95 82 3c dc a2 0f 3d 94 3d 7e bd be 0f 0f be
       0.015940364 0.035067424 -0.062070444 -0.13970849
0000d0 6b ed e9 bc 98 31 ee bd 5d 74 82 bd da 5d 9d 3d
       -0.028555593 -0.11630553 -0.06369851 0.076839164
0000e0 54 ee 44 3d ca fe 73 3d 2e a5 2a bd 62 d4 22 bd
       0.04807885 0.059569158 -0.041661434 -0.039753325
0000f0 2b 50 66 bd d3 3b 00 be 89 fc 0c be 42 7f 70 3c
       -0.056228798 -0.12522821 -0.1376821 0.014678778
000100 39 28 bb bd 4d 99 ba 3d 15 62 23 3d 5f 64 c3 bd
       -0.09138531 0.09111271 0.03988846 -0.09540629
000110 2e 85 a9 3d e4 84 fe bd df a1 84 bc a1 ee bc 3d
       0.08277355 -0.124276906 -0.016190467 0.09225202
000120 03 8b 50 3d 3b 44 81 3d 92 94 4b 3d 94 54 70 bd
       0.050913822 0.06311842 0.049702235 -0.05867441
000130 4a 63 b2 bd 9e 71 9f bd ac 8a 98 3d 7d 10 c3 bd
       -0.08710344 -0.07785343 0.074483246 -0.09524629
000140 c7 9a 18 3e fa ad 0d 3e d8 97 11 bd f2 b9 06 3e
       0.14902793 0.13835898 -0.0355452 0.1315687
000150 00 1f 62 3d 96 9a f8 3c 3e 59 2f 3d 9f f4 02 3e
       0.055205345 0.03034715 0.042809717 0.12788628
000160 38 74 ea 3c 88 3a cc bd 29 73 09 3d 3c 1a 08 bd
       0.02861987 -0.099721014 0.03355709 -0.033228144
000170 3a 04 c4 3d b9 a1 11 3e 47 8f 5f bd d2 e2 0b 3e
       0.09571119 0.14221849 -0.05458 0.13660744
000180 0f c7 2b 3d 58 ab a1 3d cb 8d c3 3d e8 ea 00 bd
       0.041937884 0.07894009 0.09548529 -0.031474024
000190 1b 94 dc ba 5b eb 7d 3c 1d 30 a9 3d 5b 1d 06 3d
       -0.0016828807 0.015498008 0.0826113 0.03274284
0001a0 d5 ed ee bd b7 5a cb bd 4f 18 f2 bd e2 e4 80 bd
       -0.116664566 -0.09929412 -0.11821043 -0.06293656
0001b0 3f fc 3d bc 81 ea 00 3d 58 9f ba 3d d6 9d 78 bc
       -0.011595785 0.03147364 0.09112424 -0.01517435
0001c0 0f c7 80 bd d5 4e e6 bd 00 c4 f5 bd c0 48 16 3e
       -0.062879674 -0.11245505 -0.12000275 0.1467619
0001d0 75 ff 53 3d a1 2c 70 bc 0a b7 ee 3d 17 65 04 3e
       0.051757295 -0.014659078 0.11656006 0.12929188
0001e0 44 c9 0c 3d 7d 87 bb 3b 6f b3 01 3e 33 a7 8d bd
       0.03437163 0.0057229386 0.12666105 -0.06916656
0001f0 cb 7f 0b 3e 0f d6 11 3e c5 4d 1c 3e 73 9f 0b 3e
       0.13622968 0.14241813 0.15264042 0.13635044
000200 8c db 95 3d e0 4e df bd 8d 4f 90 bd cb a5 a8 3d
       0.07317266 -0.10903716 -0.07046423 0.082347475
000210 bf 5f 0b be a1 a2 fe bd 0f 87 e2 3d a1 ae 55 3c
       -0.13610743 -0.12433363 0.11060917 0.013042123
000220 8b 3c 10 3e 6b af 06 3e 75 ed 47 3c 73 e3 71 bb
       0.14085595 0.13152854 0.01220261 -0.0036909252
000230 70 9e 2d bc 33 bf a4 bd db 34 7a 3d 3c e1 fd 3d
       -0.0105968565 -0.08044281 0.061085563 0.12396476
000240 68 8a 8f bd 26 54 6e bd 2a 24 60 bd 89 9f a6 3c
       -0.07008821 -0.05818572 -0.05472199 0.020339744
000250 53 eb 1b be 8c 72 e8 bc f0 9f 0f 3b 79 58 ec 3d
       -0.15226488 -0.028374933 0.0021915399 0.11540312
000260 21 84 a3 bd 0e cf b2 3d 10 1e 1e 3d 27 a4 ca bc
       -0.07984186 0.08730899 0.03860289 -0.024736477
000270 84 76 7c 3b 2d 56 1d 3d c0 e6 c1 bd 2e 1a f7 bd
       0.003852279 0.03841226 -0.0946784 -0.1206554
000280 f3 f8 d9 3d 49 cd 8c 3b 6a 73 d8 bc 42 49 c4 3d
       0.106431864 0.004296933 -0.026422221 0.09584285
000290 b3 ad fe bb f7 aa 02 be a2 33 1f 3d b5 15 01 3d
       -0.0077721714 -0.1276053 0.0388676 0.031514842
0002a0 b1 44 fc bd 64 a9 a4 3c f5 77 28 bc db b5 5c bb
       -0.12317789 0.020100303 -0.010282506 -0.003367773
0002b0 3a fd 56 3d 23 70 0d 3d 84 63 20 3d ce c9 37 bd
       0.05248759 0.03453077 0.039157405 -0.04487019
0002c0 02 7c e6 bd 5a f8 69 3d c2 69 54 bd 68 af 23 3d
       -0.11254121 0.057121612 -0.05185867 0.039962202
0002d0 aa 22 0f 3e f2 45 08 be 38 c7 e6 3b 24 2b 39 3d
       0.13978067 -0.13307932 0.0070427917 0.045207158
0002e0 0e 3e 10 be 69 ba 1c 3c 75 60 c7 3d c2 b0 b5 bd
       -0.14086172 0.009565928 0.097351946 -0.088716045
0002f0 63 0f b3 3d 3c fa dd bb 4f dd ed 3d 5f 99 8d 3c
       0.08743169 -0.006774215 0.11614477 0.017285047
000300 89 67 a6 bd 1f 09 84 3b 3f 90 a3 bd 3e 1c 99 3d
       -0.081252165 0.0040294076 -0.07986497 0.0747609
000310 96 e7 c1 bd 31 64 90 bd d0 0d e0 3d f9 a0 b3 bd
       -0.09468 -0.0705036 0.109401345 -0.087709375
000320 df e3 8e 3d 23 e3 97 3b 28 b7 be 3d 41 d6 c9 3d
       0.06977057 0.004635231 0.09312278 0.09855319
000330 ee 5d ac 3d 76 e9 57 3d 3a 15 88 3d 9f 4f 4d 3d
       0.08416353 0.05271288 0.06644674 0.05012476
000340 b4 a0 e9 3d bc ed 07 3e c3 af 96 bd a5 8d 7b bd
       0.11407605 0.13274282 -0.07357743 -0.06141438
000350 c4 9d 2a bc 07 93 f9 3d 61 93 a8 3d 8e 04 cd 3d
       -0.010413591 0.12186246 0.08231235 0.10010634
000360 85 5b c4 3d d9 bf 67 bb f2 79 0b 3c b0 a8 dc 3d
       0.095877685 -0.0035362153 0.008512961 0.10774362
000370 1c 40 cc bb c0 4b 1d be a5 96 e4 bc bf 84 6c 3d
       -0.0062332284 -0.15360928 -0.027903864 0.057743784
000380 e3 61 10 3d e0 14 92 3d 9e 85 df 3d 5c ce d6 3d
       0.035249602 0.07132888 0.10914157 0.10488579
000390 77 9b 0a be 71 6c 90 bd bb 78 ad bc 2a d9 17 be
       -0.13535868 -0.070519336 -0.021175733 -0.14828935
0003a0 bc 76 1b 3d 44 98 eb bd 11 82 0b be 6e 13 87 3b
       0.03795503 -0.11503652 -0.13623835 0.0041221892
0003b0 f1 53 03 3c 29 23 a3 3d 70 8d b5 3c c5 cb 64 bd
       0.008015619 0.07965691 0.02216217 -0.055858392
0003c0 4a 2c 1b be 56 bd cf bd 20 82 b6 3d 79 5d 15 be
       -0.15153614 -0.10143535 0.08911538 -0.14586438
0003d0 63 f1 bc 3d 4e c2 01 be 8c e7 a9 bd d4 48 c9 bd
       0.09225728 -0.12671778 -0.08296117 -0.09828344
0003e0 c0 bc 9b 3d 70 f6 b7 3d 26 a4 2f 3d d0 56 1d 3d
       0.076043606 0.08982551 0.042881154 0.03841287
0003f0 6f c0 ae 3d 6a c9 9f 3d 91 a7 60 bd d2 70 a1 bd
       0.085327975 0.078020886 -0.054847304 -0.07882847
