Emotions/opensmile_preds/AttenVec/IEMOCAP/Model/atten_w1_act.npy (npy, 67728 bytes, 1 tensors)

array f4 [130, 130]
000000 e4 ca 0e be ec 47 07 bd ef 93 6b 3d 41 ac 1b be
       -0.13944584 -0.033027574 0.057514127 -0.15202428
000010 f8 84 a2 bd ce 17 66 bd b4 84 f3 bc 9a f8 5f 3d
       -0.07935518 -0.056175046 -0.029726364 0.054680444
000020 95 ca 6b bd ee dd 47 bd 6c 6c b0 3d e1 f4 7c 3d
       -0.057566244 -0.048795633 0.0861443 0.061756972
000030 ca cb 97 3d c0 b8 3e 3d a3 aa e5 bd e6 82 9c bc
       0.074119166 0.04656291 -0.11214187 -0.019105386
000040 9d 34 bb bd e2 44 3b 3d 91 16 3a 3d 0e 89 a6 bd
       -0.091408946 0.04571999 0.045431677 -0.0813161
000050 8e 7f bd bd 1c 0e 07 be 46 57 eb bd 81 7e 83 bd
       -0.09252845 -0.13188976 -0.114912555 -0.06420613
000060 35 e5 79 bd af 14 e9 3d 0d eb b4 3b ec 1a 74 bd
       -0.061009604 0.11380898 0.0055211843 -0.059595987
000070 f4 a8 88 bd 6e 40 06 be 39 b7 8e 3d d7 32 b2 bd
       -0.0667285 -0.13110515 0.06968541 -0.08701103
000080 91 23 1f be 56 4f 10 be e9 9f ec bd 12 4a cd bb
       -0.15540911 -0.14092764 -0.11553938 -0.0062649334
000090 69 29 b3 3d 80 a1 fa 3d 8c 60 53 3d 37 9c a1 bd
       0.08748133 0.12237835 0.051605746 -0.07891124
0000a0 86 53 28 3d ce 07 fa bd da e4 26 bd cd 45 08 3d
       0.04109528 -0.1220852 -0.040745594 0.033269692
0000b0 4c 03 ad 3d 7a 20 37 3d 82 16 7e bc a8 b0 fc 3d
       0.084478945 0.044708706 -0.015508296 0.12338382
0000c0 b0 0b ad 3c 38 81 b8 3c 1a a8 a2 bd a3 f4 60 bd
       0.021123737 0.022522554 -0.07942219 -0.054920804
0000d0 c4 4a fb bd b1 2f 21 3d 62 23 0c 3e b9 80 a7 3d
       -0.1227012 0.039352123 0.13685372 0.08178849
0000e0 ae 1b 09 3c 33 20 0f bd fa c5 5e bb ce 81 10 3e
       0.008368416 -0.034942817 -0.0033992515 0.14112017
0000f0 e8 34 ea 3b 1b 30 07 3e ab d6 a3 3d 92 cd 5e bc
       0.00714742 0.13201945 0.07999929 -0.0135988165
000100 09 65 75 bd 18 fd bc bd a3 48 01 3e 14 79 18 bd
       -0.059910808 -0.09227961 0.12625365 -0.037224844
000110 80 28 23 be 66 1b c8 3d 2c ed 1e 3d 65 f1 e0 bd
       -0.15933418 0.09770851 0.038800403 -0.10983542
000120 41 48 a7 3d 40 97 a7 bd f3 fd 3e 3d f5 2f de 3d
       0.08168078 -0.081831455 0.046628904 0.10848991
000130 c2 65 cb bc 10 7b 03 be cf cc 22 3d 25 9c 0b 3d
       -0.024828795 -0.12839913 0.039746102 0.034084458
000140 31 2c 0d be 9e 36 26 bd b2 65 72 3d 5d 2a 90 3c
       -0.13786389 -0.04057943 0.059179015 0.017598325
000150 32 d8 d0 3d fd 2d c3 bc 61 6c d7 bd e6 9f c7 bd
       0.10197486 -0.02382564 -0.105187185 -0.09747295
000160 5d a9 24 3d bc e3 ae bd 6e f6 4c 3d d7 3d 15 be
       0.04020058 -0.08539531 0.0500397 -0.14574371
000170 06 3a 8e 3d 9e 70 6b 3d 55 a0 8e 3d b7 74 15 3c
       0.06944661 0.057480447 0.06964175 0.009122065
000180 2f 95 fc 3d ed d7 10 be b2 71 b3 bd 5e 38 c8 bd
       0.12333142 -0.14144869 -0.0876192 -0.09776376
000190 f2 8b 22 bd 74 88 05 be ef e5 d6 bd a3 ab e4 bd
       -0.039684244 -0.13040334 -0.10493075 -0.111655496
0001a0 fe 02 b6 3d 47 12 06 3c 64 54 d0 3c 2f d0 1a be
       0.088872895 0.008183069 0.025430866 -0.15118478
0001b0 46 bc ad 3d ad 2d b0 3d 47 03 22 be 17 4e d9 bc
       0.08483176 0.08602462 -0.15821563 -0.026526494
0001c0 11 16 3c 3c 11 51 a9 bd 37 06 8e bc 7e 57 20 be
       0.01147987 -0.08267415 -0.017336948 -0.15658376
0001d0 e6 61 09 bc 8a a2 ac bd 23 65 ab bc 07 49 ac bd
       -0.008385157 -0.08429439 -0.02092225 -0.08412366
0001e0 96 f4 91 3d 15 ab 9b bd 31 29 8d bd 69 ad e1 3d
       0.07126729 -0.07600991 -0.06892622 0.110194035
0001f0 6f 9c ad bd 37 04 25 3d 38 c0 2e 3d 8f 25 90 bc
       -0.08477103 0.040287223 0.042663783 -0.017596034
000200 a2 cf 96 bd 60 d4 43 3d 2b 1e 19 3e 0d 4e 01 be
       -0.073638216 0.04780996 0.14952914 -0.1262743
000210 da 12 1d be 89 37 b9 3d 73 4e d7 3d 0f f3 09 3c
       -0.15339223 0.090437956 0.1051301 0.008419766
000220 97 e9 a1 3d bf 1d 40 3d 20 3d 99 3d 5d 6a 03 3d
       0.07905882 0.046903368 0.07482362 0.032083858
000230 a7 07 17 be dc 55 04 be ce 54 31 3d 0e 87 f4 3d
       -0.14749013 -0.12923378 0.043293767 0.11939822
000240 5d ce 19 be b6 29 7b bd 9c 27 7e 3d 12 dd a3 3d
       -0.15020128 -0.061319076 0.062049493 0.0800115
000250 33 d8 da 3d df 74 ca bd bf 82 0a 3e 98 5d 19 3e
       0.10685768 -0.09885573 0.13526438 0.1497711
000260 8f 3a 13 3d 32 e2 07 3e 3a 16 75 bd a6 bf 5c 3d
       0.035944518 0.1326988 -0.05983565 0.053893708
000270 f4 57 b0 bc 8d 21 76 3c 47 40 b5 3d 58 be f1 bd
       -0.021526314 0.015022648 0.088501506 -0.11803883
000280 0b 14 9c bd 97 f3 09 3e 59 cb 0c 3e fb db da 3b
       -0.076210104 0.13471828 0.13749446 0.0066790557
000290 9f 92 ad bd 68 c3 84 3d 09 04 93 3d 3e bd a3 3d
       -0.084752314 0.06482583 0.07178504 0.079950795
0002a0 1a 77 0f bd 7d 39 c0 bc 31 43 bf bc d3 59 c4 bc
       -0.035025693 -0.023464913 -0.023347469 -0.023968613
0002b0 06 2d 5c bd e7 79 01 3e f0 8c c8 3c a6 df 16 be
       -0.053753875 0.12644158 0.024481267 -0.14733753
0002c0 0a 4c 89 3d 9c b4 b2 3c 24 a8 6c bc 27 3a d3 bd
       0.067039564 0.021814637 -0.014444385 -0.10313826
0002d0 a3 12 b6 bc 77 66 07 be 96 dd fb 3c 6e 52 00 be
       -0.022225684 -0.13222681 0.030745309 -0.12531444
0002e0 26 44 42 3d c5 53 7d 3d ab 02 c5 3c 14 08 01 be
       0.047428273 0.061847467 0.024049124 -0.12600738
0002f0 c1 f5 2b 3d 5a ec 83 3d d9 80 c9 bc f5 d1 e2 3d
       0.041982416 0.06441565 -0.024597572 0.110752024
000300 0d a3 47 3a fa 14 06 3e ab ba 92 3d cb d7 05 bd
       0.0007615544 0.1309394 0.0716451 -0.0326765
000310 03 af f7 3d 6d f1 73 3d a1 6d 6b 3d 34 d8 d1 bb
       0.12093928 0.059556413 0.057477597 -0.0064039472
000320 de ff c2 3c 4d 76 36 bd 17 1f 18 bd 69 96 10 3e
       0.023803648 -0.044546414 -0.037139025 0.14119877
000330 2a b3 23 3d 4c 03 15 3d 13 1d 36 bd b2 6c 71 bd
       0.039965786 0.036380097 -0.04446132 -0.05894155
000340 a9 56 9c bd b1 46 51 bc d7 bc 89 bd 7c 21 78 bd
       -0.076337166 -0.012773202 -0.067254715 -0.06057881
000350 39 09 b7 3d e3 72 bd bd 98 65 12 be 23 48 09 3d
       0.08937306 -0.092504285 -0.14296567 0.03351606
000360 c7 ff 9b 3d 11 78 dd 3c 30 02 a4 3d 2b 83 ab 3d
       0.07617145 0.027034791 0.0800823 0.08374628
000370 82 f6 45 3d 0e ac 1c 3e 8c ca d1 bd c9 ca 95 3d
       0.04833079 0.15300009 -0.10243711 0.07314069
000380 de 21 0c 3d 44 34 8f bd 04 aa 1b be 79 04 5c bd
       0.034211986 -0.06992391 -0.15201575 -0.053715203
000390 44 21 56 bd ee 3b 7c 3b be 0e b4 bd b5 e4 91 bd
       -0.05227782 0.003848787 -0.08791874 -0.071237005
0003a0 29 4e 04 3b a3 7a 1d 3d a9 b2 0b be 2f 8f cf bc
       0.0020188189 0.038447034 -0.13642372 -0.02533683
0003b0 85 0b 68 3d 02 64 eb 3d 57 da 70 3d b6 33 98 bc
       0.05665161 0.11493684 0.058801975 -0.018579345
0003c0 89 bc e1 bd ea 59 14 3e 72 2a 43 bd c7 08 1f 3e
       -0.11022288 0.14487424 -0.0476479 0.15530692
0003d0 6a 35 06 3e 99 d4 0e be fb 3a 6e 3d bc 00 56 3d
       0.13106313 -0.13948287 0.058161717 0.052246794
0003e0 7c 18 f1 3d 97 82 38 3c f5 01 19 3b e7 28 b7 bc
       0.11772248 0.011261604 0.0023347114 -0.022358371
0003f0 66 29 e2 3d 34 46 98 bd 51 67 07 be 6b 3b 1d 3d
       0.110430524 -0.07435265 -0.13223006 0.038386744
