Emotions/opensmile_preds/AttenVec/MSP-Podcast/Model/atten_w2_act.npy (npy, 135328 bytes, 1 tensors)

array f4 [260, 130]
0	0xbb97e4a9	-0.0046354127
1	0x3d881283	0.06644156
2	0x3dd29231	0.1028179
3	0xbdfec98f	-0.12440788
4	0xbb69bc72	-0.00356653
5	0xbc1dd9ee	-0.009634478
6	0x3c92477c	0.017856352
7	0x3df95baf	0.121756904
8	0xbdf22c63	-0.11824872
9	0xbbdf45f6	-0.00681376
10	0x3df9c2b6	0.12195341
11	0xbdde8ded	-0.10866914
12	0xbd30c151	-0.04315311
13	0x3dcfc2bd	0.10144565
14	0x3ca3129e	0.019906338
15	0x3d9aa37c	0.075507134
16	0xbd6e5375	-0.05818506
17	0xbd124b0a	-0.035716094
18	0xbe042619	-0.12905158
19	0x3d9a5aff	0.075368874
20	0x3d34dfff	0.04415893
21	0xbdb0e606	-0.086376235
22	0xbdd09ab3	-0.101857565
23	0xbdbf0dc6	-0.09328799
24	0x3d5fc5cf	0.054632004
25	0x3d4a8075	0.049438912
26	0xbdb369ae	-0.08760391
27	0x3daa7812	0.08323683
28	0xbdf9a745	-0.12190107
29	0xbcca3606	-0.024683964
30	0xbd29d0ed	-0.041459013
31	0x3d687202	0.05674935
32	0xbd8bc112	-0.068239346
33	0xbda3b6dd	-0.07993863
34	0x3da276cd	0.07932816
35	0xbdf52d5d	-0.11971543
36	0xbd67f013	-0.056625437
37	0x3bbfa60a	0.005848651
38	0xbd819e1f	-0.06328987
39	0xbdb67094	-0.08908191
40	0x3d590bd1	0.052989785
41	0xbdee7011	-0.11642469
42	0x3dc3a5b7	0.09553092
43	0x3c11950c	0.008885633
44	0x3c54471f	0.01295641
45	0xbc579b25	-0.013159548
46	0x3d00f635	0.0314848
47	0xbd0a53de	-0.03377139
48	0x3cb8f09e	0.022575673
49	0xbd175e0a	-0.036954917
50	0xbd1b65f0	-0.037939012
51	0x3d50304d	0.050827313
52	0x3d48c3b3	0.04901476
53	0xbdb02f16	-0.08602731
54	0xbd261530	-0.04054755
55	0xbde0b83f	-0.10972642
56	0x3c5592b0	0.013035461
57	0x3d811d33	0.063043974
58	0xbbda4d7d	-0.0066620694
59	0xbdb8c13d	-0.09021232
60	0x3c81343a	0.015771974
61	0x3de5726c	0.11203465
62	0xbce7eade	-0.028310236
63	0x3e0a1ecc	0.1348831
64	0xbcf29a6a	-0.029614646
65	0x3d81778a	0.063216284
66	0xbbc78f1d	-0.0060900585
67	0xbd471053	-0.048599552
68	0x3d269d12	0.040677138
69	0xbd094963	-0.033517253
70	0xbdbdd267	-0.09268647
71	0x3d1d4a97	0.038401213
72	0xbd52f7c6	-0.051505826
73	0xbcb1a874	-0.02168677
74	0xbdc70922	-0.09718539
75	0xbd58a8cc	-0.052895352
76	0x3d04fbe5	0.032466788
77	0xbdc24a53	-0.094868325
78	0x3d128ec2	0.035780676
79	0x3db85e70	0.090023875
80	0x3d9f8081	0.07788182
81	0x3d5721f5	0.05252262
82	0xbe032f18	-0.12810934
83	0x3c7e3535	0.015515615
84	0xbd0cd965	-0.03438701
85	0xbcbe0a4e	-0.023198273
86	0x3cbd59e9	0.023114162
87	0x3ccf3587	0.025294079
88	0xbdad5613	-0.08463683
89	0xbd783357	-0.060595836
90	0x3d8d2aaf	0.06892907
91	0xbce943bc	-0.028474681
92	0xbdef6ead	-0.116910316
93	0x3c14867b	0.009065266
94	0xbd987697	-0.07444494
95	0x3cbca8ea	0.023029763
96	0x3d938cf7	0.07204621
97	0xbdb60e78	-0.088894784
98	0x3d712319	0.058871362
99	0x3bec0e72	0.0072038705
100	0xbd147428	-0.036243588
101	0xbdabdda8	-0.08391887
102	0x3af98fc1	0.0019040034
103	0xbcc23197	-0.023705287
104	0xbcfbe8ec	-0.030750714
105	0xbdcf721e	-0.10129188
106	0xbd16c3b1	-0.03680772
107	0x3d1eb7f7	0.03874966
108	0x3da2f57c	0.07956979
109	0xbd8e821e	-0.06958412
110	0x3d593c79	0.053036187
111	0x3d77a825	0.06046309
112	0xbd8357ad	-0.06413207
113	0xbdbc1af1	-0.09184826
114	0xbd1c2448	-0.038120538
115	0x3ce267a2	0.027637307
116	0xbd6b4880	-0.05744219
117	0xbd1ab266	-0.03776779
118	0xba00c145	-0.0004911612
119	0xbdb57cd1	-0.088616975
120	0xbdb9c3c7	-0.09070545
121	0xbe06e9a5	-0.13175066
122	0xbb2cbb25	-0.0026356664
123	0xbbc56ba9	-0.006024797
124	0xbc5a1383	-0.013310316
125	0x3d6af58f	0.05736309
126	0xbce6c5f9	-0.028170573
127	0xbdb287af	-0.08717286
128	0xbcc1b191	-0.02364424
129	0x3b427d57	0.002967676
130	0xbdd26717	-0.10273569
131	0xbb48512e	-0.0030565965
132	0xbd671428	-0.056415707
133	0xbde24cc2	-0.11049797
134	0xbd94cce2	-0.07265641
135	0x3d07cb8b	0.033153098
136	0xbd400b07	-0.046885516
137	0xbe04edb9	-0.12981309
138	0xbcad17ab	-0.02112945
139	0xbd1e4388	-0.03863862
140	0xbd80b37b	-0.06284233
141	0x389e370c	7.5442804e-05
142	0xbd1cf0d5	-0.038315613
143	0xbd07c528	-0.033147007
144	0x3d713e94	0.05889757
145	0xbdc1a935	-0.09456102
146	0xbcaad637	-0.020854099
147	0x3d45192b	0.048119705
148	0x3d185813	0.03719337
149	0xbbfad81a	-0.007655156
150	0xbdc1621d	-0.09442542
151	0xbd8a7200	-0.06760025
152	0x3c6e91cb	0.014561127
153	0x3dca056c	0.098643154
154	0x3859e548	5.1950366e-05
155	0xbe343797	-0.17599331
156	0x3c135ec4	0.008994762
157	0xbd49a024	-0.049224988
158	0x3df54284	0.119755775
159	0xbe11f327	-0.14252912
160	0xbe0c1914	-0.13681442
161	0xbdbf8e8d	-0.09353361
162	0x3c48e40a	0.0122614
163	0xbda85b38	-0.082205236
164	0xbd8a0cb9	-0.06740708
165	0x3cf05218	0.02933602
166	0x3cab3fd9	0.020904468
167	0x3de6ac7b	0.11263367
168	0x3d46e8c2	0.04856182
169	0x3c2ada10	0.010427967
170	0xbd7e37b2	-0.062064834
171	0xbdd08e3c	-0.10183379
172	0xbdbe0d8e	-0.09279929
173	0xbd0cc08c	-0.034363315
174	0xbe102510	-0.14076638
175	0xbdbc464b	-0.09193095
176	0x3d4d3fed	0.050109793
177	0xbd06aa0f	-0.032877024
178	0xbde07765	-0.10960273
179	0x3d56be27	0.052427437
180	0xbd37b50d	-0.044850398
181	0x3e0495fa	0.12947837
182	0xbb15d3d5	-0.0022861857
183	0xbd729edb	-0.059233528
184	0x3dea9d44	0.11455777
185	0x3df93dcc	0.1216999
186	0x3ddc3a7c	0.107533425
187	0xbc854080	-0.016266108
188	0xbcfabbbb	-0.030607095
189	0xbda1e838	-0.0790562
190	0x3df7f9f4	0.12108222
191	0xbd29caca	-0.04145316
192	0xba9218b7	-0.0011146282
193	0x3d4d9bb8	0.050197333
194	0xbdbea350	-0.09308493
195	0xbca2331d	-0.019799763
196	0xbd5fe242	-0.054659136
197	0xbd87c7ca	-0.066299036
198	0xbd105272	-0.035234876
199	0xbcca5c3a	-0.02470218
200	0x3c2e9976	0.010656705
201	0x3de4eadc	0.11177608
202	0xbd1eac12	-0.038738318
203	0xbd442927	-0.04789081
204	0xbcdaf0bb	-0.026726117
205	0x3c1bcfc8	0.009509988
206	0xbded72ea	-0.11594184
207	0x3d7af353	0.06126721
208	0xbd81fe64	-0.06347349
209	0x3d8b25bc	0.06794307
210	0xbcc4a987	-0.024006618
211	0xbc9a98d3	-0.0188717
212	0x3dc4a8fb	0.09602543
213	0x3a4514a4	0.00075180293
214	0xba8a349c	-0.0010544243
215	0x3de45e75	0.11150829
216	0x3daf1a83	0.085499786
217	0x3d28fd4b	0.041257184
218	0x3df5adbf	0.1199603
219	0xbd51beff	-0.05120754
220	0x3d7567eb	0.059913557
221	0xba9184f6	-0.0011102248
222	0xbdb6115b	-0.08890029
223	0x3d6dcfd6	0.058059536
224	0xbd98b5d8	-0.07456559
225	0xbdbdbab3	-0.09264126
226	0xbd71d1eb	-0.059038084
227	0x3dbf764a	0.09348734
228	0x3c79902a	0.015232125
229	0xbd13f9c7	-0.036126878
230	0x3d9e51e1	0.07730461
231	0x3c31d3ad	0.01085369
232	0x3dcd6a3c	0.10030028
233	0x3c735b6b	0.014853339
234	0xbdedf520	-0.116190195
235	0xbdd472dd	-0.10373471
236	0xbdc8328c	-0.09775266
237	0x3db2c6a4	0.08729294
238	0xbd401ab8	-0.04690048
239	0x3da0836a	0.07837565
240	0xbdb3aadf	-0.087728254
241	0x3d3d277e	0.04618024
242	0xbd697011	-0.05699164
243	0xbdc9b61d	-0.098491885
244	0x3d87af44	0.06625226
245	0x3e01b5b1	0.12666966
246	0x3d98b6d6	0.07456748
247	0xbd97b3ae	-0.07407318
248	0x3d79d514	0.060994223
249	0x3da6d64d	0.081463434
250	0x3dcf4a59	0.101216026
251	0x3d977a20	0.0739634
252	0xbdcccf0d	-0.10000429
253	0x3d0b2c89	0.03397802
254	0x3e04ad2e	0.12956688
255	0xbdb04d77	-0.08608525
