Emotions/opensmile_preds/AttenVec/MSP-Podcast/Model/atten_w2_val.npy (npy, 135328 bytes, 1 tensors)

array f4 [260, 130]
0	0x3e0ddcd0	0.13853765
1	0x3dc0c084	0.094117194
2	0xbd88fc77	-0.06688779
3	0xbcec9218	-0.028878257
4	0xbdf92b6d	-0.12166486
5	0xbde64371	-0.11243332
6	0xbdcaa01a	-0.09893818
7	0xbd429018	-0.0475007
8	0x3dd9ee63	0.10641172
9	0x3dd530e6	0.10409717
10	0xbd8f7244	-0.07004216
11	0x3d9c242b	0.07624086
12	0xbe13daf2	-0.1443899
13	0x3dd2b28f	0.102879636
14	0x3c80cf63	0.01572389
15	0xbd70ad9b	-0.058759313
16	0xbc7e03b5	-0.0155038135
17	0x3bbcdba7	0.0057634893
18	0xbd8751d7	-0.066074066
19	0x3d727986	0.059197925
20	0xbc312482	-0.010811927
21	0x3d006ae4	0.03135194
22	0xbd851d3b	-0.06499716
23	0xbda3c391	-0.07996286
24	0xbad0ed1f	-0.0015939808
25	0xbdac04b9	-0.08399338
26	0xbd20f599	-0.03929672
27	0xbe0bbae0	-0.13645506
28	0x3d15de82	0.036589153
29	0x3d4f50bc	0.050614104
30	0x3dca8166	0.09887962
31	0x3db75c39	0.08953137
32	0xbdd541c2	-0.10412933
33	0x3dcbf119	0.09958095
34	0x3ddeb872	0.10875024
35	0x3d033ad9	0.032038543
36	0x3da1f288	0.07907587
37	0xbd85c3d7	-0.06531494
38	0xbddaaf7a	-0.10678001
39	0x3d5bbf09	0.053648982
40	0x3c8281eb	0.01593109
41	0x3de3cb64	0.11122778
42	0x3deee9f1	0.116657145
43	0x3b53e9ac	0.0032335324
44	0xbd9c0e92	-0.076199666
45	0x3dd365d2	0.10322155
46	0xbe04c074	-0.1296404
47	0xbd76ad86	-0.06022408
48	0xbd78a789	-0.06070665
49	0xbdd94fa8	-0.10610896
50	0x3ce1689b	0.0275157
51	0xbdc97eeb	-0.09838661
52	0xbdf364c7	-0.11884456
53	0xbdca8f30	-0.09890592
54	0xbdf1d19c	-0.11807558
55	0x3de4b63c	0.11167571
56	0x3dca84e2	0.09888627
57	0xbcfd050c	-0.030886196
58	0xbd557309	-0.05211166
59	0x3da40d57	0.08010357
60	0xbd1414c6	-0.036152624
61	0x3da9afb7	0.08285468
62	0x3df30c1e	0.118675455
63	0xba9a20d5	-0.0011759052
64	0x3cb9f382	0.022699121
65	0xbc0f6f35	-0.008754541
66	0x3d920bc2	0.07131149
67	0x3d655f10	0.05599886
68	0xbc447d0f	-0.011992707
69	0xbdb9faa1	-0.09081007
70	0xbd180f99	-0.03712425
71	0x3ce66b5c	0.028127365
72	0xbdff0671	-0.124524005
73	0xbc3c0bd2	-0.011477428
74	0x3c44b878	0.012006871
75	0x3cc6c5d2	0.02426425
76	0x3db88a5e	0.090107664
77	0x3d690506	0.056889556
78	0xbc6ca405	-0.014443402
79	0x3dc1cee2	0.09463288
80	0x3d992a81	0.0747881
81	0xbcdaa367	-0.026689244
82	0xbd02f59f	-0.031972524
83	0x3d7d376f	0.061820444
84	0x3d6d02c5	0.05786397
85	0x3d1301f0	0.03589052
86	0x3ba75ede	0.0051077446
87	0xbd903626	-0.07041578
88	0xbda7ef9b	-0.08199998
89	0x3dd404e8	0.10352498
90	0x3c83b9f9	0.01607989
91	0x3d228dfb	0.039686184
92	0xbc0eb85f	-0.00871095
93	0xbcdd8517	-0.027041001
94	0x3d60506f	0.054764207
95	0xbd909689	-0.07059962
96	0xbdc4ce45	-0.09609655
97	0xbd54b327	-0.051928665
98	0xbda3f076	-0.08004849
99	0xbde00b73	-0.10939684
100	0x3dd5ef47	0.10446029
101	0x3dc66438	0.09687084
102	0xbdcfa269	-0.10138399
103	0x3d8cb670	0.06870735
104	0xbd713f2c	-0.058898136
105	0xbc46d868	-0.012136556
106	0xbcc4a61d	-0.02400499
107	0xbd988f7f	-0.07449245
108	0xbd9b26e0	-0.07575774
109	0x3b0cd0bc	0.002148672
110	0x3d10c821	0.035347108
111	0xbca99023	-0.020698613
112	0xbcaaa98f	-0.020832805
113	0x3ddfec90	0.109337926
114	0x3d0312b3	0.032000255
115	0x3dbadfb0	0.09124696
116	0x3dd6f410	0.1049577
117	0xbd9292df	-0.0715692
118	0x3d9be9f0	0.076129794
119	0xbe0f751c	-0.14009517
120	0x3cd4aad8	0.02596037
121	0xbcb67d80	-0.02227664
122	0x3d4ddf91	0.050262038
123	0xbd862789	-0.065505095
124	0x3db8c3ba	0.09021707
125	0x3c4abed2	0.012374597
126	0x3dd2125d	0.10257409
127	0x3d9c6990	0.07637322
128	0xbd50136e	-0.05079978
129	0xbd4ccded	-0.050001074
130	0xbdcc8019	-0.0998537
131	0x3d8d5129	0.06900246
132	0xbd8bf224	-0.06833294
133	0xbda68b7f	-0.081320755
134	0x3df94179	0.12170691
135	0x3dbc413e	0.091921315
136	0x3d9a38d1	0.07530368
137	0x3dbf6f12	0.09347357
138	0x3dd5ad25	0.10433415
139	0x3ced02d8	0.02893202
140	0x3cca51b8	0.02469717
141	0xbc9fe8d8	-0.019520208
142	0xbda70869	-0.08155901
143	0x3db64f61	0.08901859
144	0xbc986ba1	-0.018606009
145	0xbccc5048	-0.024940625
146	0xbc926911	-0.017872365
147	0x3e008470	0.12550521
148	0x3d856b59	0.065146156
149	0x3cc24eea	0.02371927
150	0xbd190e9a	-0.03736744
151	0xbc600c7b	-0.013674851
152	0x3d7e4ccc	0.062084958
153	0xbd578f05	-0.05262663
154	0x3d1456fd	0.03621577
155	0x3d241559	0.04005942
156	0xbd3b3cc8	-0.045712262
157	0x3cc0324e	0.023461487
158	0xbdd8176f	-0.105513446
159	0xbc92f453	-0.017938768
160	0xbdb30f79	-0.087431855
161	0x3d5839ef	0.052789625
162	0x3c2051f7	0.009785167
163	0xbd8c9b86	-0.06865601
164	0x3da9d19b	0.08291932
165	0x3de0b7fa	0.10972591
166	0xbdeac81f	-0.11463951
167	0x3d297870	0.041374624
168	0xbd0bf966	-0.03417339
169	0xbd9296e1	-0.07157684
170	0x3d4b89a7	0.049691822
171	0x3d3e5b4d	0.04647379
172	0xbe0015d4	-0.12508327
173	0xbdb26cc0	-0.08712149
174	0xbba974d4	-0.0051713977
175	0xbdf8fa02	-0.1215706
176	0xbd8547ab	-0.0650781
177	0x3d2fb93d	0.042901266
178	0xbde8602e	-0.1134647
179	0xbdc04db7	-0.09389823
180	0xbb9edb3b	-0.0048479117
181	0xbc0bd980	-0.008535743
182	0x3d72727d	0.059191216
183	0xbd631308	-0.05543807
184	0x3e0c92ab	0.13727824
185	0xbb9d7a23	-0.0048058196
186	0xbd8be414	-0.06830612
187	0x3de1bf5a	0.110228255
188	0x3df1e113	0.118105076
189	0x3db6d873	0.08928003
190	0xbdc210be	-0.094758496
191	0xbd0e55f7	-0.03474995
192	0xbb403ce4	-0.0029333169
193	0xbd8a14f2	-0.06742276
194	0xbdd3d1bb	-0.10342737
195	0x3afa2dad	0.0019087099
196	0xbc8de4a2	-0.017320935
197	0xbda75cde	-0.0817201
198	0xbd16bea0	-0.036802888
199	0x3bc1ff09	0.005920295
200	0xbd066f15	-0.03282078
201	0x3d08a24f	0.033357915
202	0x3bb7c0fc	0.0056077223
203	0xbd33ec62	-0.043926604
204	0xbd87b05d	-0.066254355
205	0xbdef0f70	-0.11672866
206	0xbdfd1ad0	-0.1235863
207	0x3de8907e	0.11355685
208	0xbde40448	-0.11133629
209	0x3d8c86aa	0.06861623
210	0x3d376522	0.044774182
211	0x3bb4e9de	0.005521043
212	0x3e1b9149	0.1519214
213	0x3dee9aac	0.11650595
214	0xbc729234	-0.014805365
215	0xbbd277d5	-0.0064229765
216	0x3cb01461	0.021494092
217	0xbd5f0b09	-0.054453883
218	0xbba7bf22	-0.0051192204
219	0xbd069272	-0.032854505
220	0x3d9df961	0.07713581
221	0xbdc69a46	-0.09697394
222	0x3d655c3c	0.055996165
223	0xbd528878	-0.051399678
224	0x3d3d0360	0.046145797
225	0x3d613254	0.054979637
226	0x3caa00cf	0.020752339
227	0xbd3afd7e	-0.045651905
228	0x3dd12a6f	0.10213172
229	0xbdf316ca	-0.11869581
230	0x3b968b41	0.004594237
231	0xbddf3150	-0.108980775
232	0xbd2f02cf	-0.042727288
233	0x3d080e57	0.0332168
234	0x3d3fbce3	0.046810996
235	0xbd7ad902	-0.06124211
236	0x3d8a9d04	0.067682296
237	0x3c67320f	0.014111056
238	0xbd819a41	-0.0632825
239	0xbb241b4f	-0.0025040691
240	0xbd2814d4	-0.04103549
241	0xbe0030d5	-0.12518628
242	0xbcd3f69c	-0.025874428
243	0xbdc5d261	-0.09659267
244	0x3d2f73cf	0.042835053
245	0xbd73125c	-0.05934368
246	0xbdd5799c	-0.10423586
247	0xbcdc87ee	-0.026920285
248	0xbd99afed	-0.07504258
249	0xbd4340d4	-0.047669247
250	0x3b8c21c9	0.0042764884
251	0xbde3f8bf	-0.11131429
252	0x3d99cc6b	0.07509693
253	0x3d9fca8c	0.078023046
254	0x3ca3c89e	0.019993123
255	0xbddd9620	-0.1081965
