Emotions/opensmile_preds/AttenVec/MSP-Podcast/Model/atten_w1_val.npy (npy, 67728 bytes, 1 tensors)

array f4 [130, 130]
00000000: 800a d93d 9220 05be 7332 8f3d aefe 983c
00000010: 7a16 6e3d 4c4d f63d 9b82 ec3c 8f5b 013e
00000020: db40 b4bd 0ba0 05bd 14c3 d73d 1ac0 ffbd
00000030: 5155 b4bd fde7 0bbe fcf4 d33d ca94 49bd
00000040: bd2d fb3c 2d75 6bbd f6ca 7fbd b006 8dbd
00000050: f9df 88bd 4eec 12be 3dfe 0abe 0b1b 15be
00000060: 950e 893d fda7 1cbe 4210 0c3d 6ca3 49bd
00000070: c5cc 0ebd 7702 1abe 12e6 013e fab8 9b3d
00000080: 56ce 79bd f5be 70bd 4bff 46bd be4f af3d
00000090: 6ef9 44bd 29df 9cbd 0c3a ddbd 8539 e1bd
000000a0: 5e5b 203d 43eb 55bd 5930 a5bd 0293 3d3d
000000b0: df8a febd 0d99 c93c 77ce 8ebc d388 df3d
000000c0: 1504 0ebc e865 aebb de44 cdbd e3ac c23d
000000d0: f94f 0e3e e378 cc3d e8d3 2ebd adac 5e3d
000000e0: 5073 b5bd bdcd cc3c 48e9 f9ba 8448 dd3d
000000f0: 2869 cb3d 5e92 303d 4959 2b3d be77 0abe
00000100: 970e 90bd 13dd 4fbc 1573 f4bd 1e0d 02be
00000110: d356 a93d 7a22 df3d bd1a af3d cdc5 bb3c
00000120: 02a2 06bc 22c3 e43c 8dd0 f33d 7758 c9bd
00000130: 4c63 c43d 6e4e 06bd 0385 e3bc 8130 c03d
00000140: 0334 a9bd 1434 57bc c2c1 cebd 7c3c cd3d
00000150: d2ab a03d 9127 05be aca1 88bc 3ada d63d
00000160: 0067 8e3d efb0 a93d f0dc 1f3d 757f aabd
00000170: a689 cc3d 2114 f4bd 2a15 003d dd88 e4bb
00000180: 39a1 d93d 2740 c3bd b3cc 38bc 4cd4 dabd
00000190: da9c dcbd afcc 913d 60fc b3bd 5318 133d
000001a0: b627 0b3e e436 a8bd cbad f6bd 6bde fa3d
000001b0: 2d32 a43d dee8 2e3e d7bb dabd adff cbbc
000001c0: 341e 343d c468 cb3d c2be cbbd 8e98 0cbd
000001d0: ef6e 183d 83b1 d4bd 3966 f93d 6c18 00be
000001e0: 3ad5 c4bc 3611 58bd 6d4c 013e c5e3 75bd
000001f0: 4bca 37bd 2f21 b5bd e573 b43d 8036 013e
00000200: 283b 9abc f40c 073e 5a62 5abd 9eae 593c
00000210: 9258 e0bb d0ad dcbd 6352 e03d 0982 013e
00000220: 696e 01be afb4 9c3d ad96 793d 56c7 213d
00000230: 0cef de3b c602 1ebe 1019 b33d 202a b63d
00000240: 87ee 3cbd 86bd a7bc 74e5 bfbd fe22 593d
00000250: 02e3 11bd 1f61 eebd 5cde 133e 90ae c03a
00000260: 5a42 d83d 7541 efbb 3f5b 0c3e 930a 9d3d
00000270: 89e4 09be a2c7 dcbc 0820 223d 9315 a0bd
00000280: f0ae 4cbd 7841 52bd 1333 8bbd 2ce1 afbd
00000290: efaa 5fbd 36f3 e3bd fdef 0f3d acf2 483d
000002a0: d947 0b3e eafe 0f3d a5f3 a03d 9894 1fbb
000002b0: 1057 0a3e 669f 01bd 9537 e4bb 5b80 2cbd
000002c0: 7e64 c9bc 7991 95bd ec1e 6abd 8fdf d5bc
000002d0: 1a4f bebd ee71 f43c 01b6 8d3b 142e fdbc
000002e0: c174 0dbe d655 2abe 592b e9bd 35db d13d
000002f0: b15c de3d 71ba 45bd cef5 ac3d ee2f 003e
00000300: 5c80 71bc 2bfb 063e 25f6 debd 482e dabd
00000310: e3d0 a1bd 11f4 0ebe 7aff e5bb 9a15 2b3b
00000320: b8e5 8abd d090 ab3d a4e4 87bc 2966 9fbd
00000330: 1aab d2bd 29d6 eb3d 55b8 413c 67db 5c3d
00000340: 1900 07bc 2e87 7b3c 5544 01be bbe3 febd
00000350: 84c8 1b3b 26a4 a53d d46e 19be 7c59 06bd
00000360: a9ec e23c 709c d3bd f528 4d3d 2e1d a43d
00000370: 85c9 debc fd93 08bc 57a2 11be 90a4 173d
00000380: 5741 b73d 388b 50bc 7952 263e 9ce8 ad3d
00000390: e784 b53b 1a3c ba3d 20bc e9bd e3b4 44bc
000003a0: 2aa9 e53b 2fb2 673d 5830 5c3c 1d5d e3bc
000003b0: 4030 de3c 350c 83bd 74ec 813c 074e 123e
000003c0: 8fa3 31be f9e1 7ebc 2101 95bd b077 073d
000003d0: e6ec c8bb 2f93 da3d 81c6 a03c d928 9bbc
000003e0: b0d8 13be 5853 8fbd ae8b 0e3e a50e f23b
000003f0: 398d 423d 0b04 bc3d 569b 253e 6326 d4bd
0.10597706 -0.13000706 0.06992044 0.018676128 0.058126904 0.12026462 0.028870871 0.12632583
-0.08801433 -0.032623332 0.10535255 -0.12487812 -0.08805335 -0.13662715 0.103494614 -0.049214162
0.030661458 -0.057484794 -0.062449418 -0.06886041 -0.066833444 -0.14347956 -0.13573547 -0.14561097
0.066922344 -0.15298457 0.034195192 -0.049228117 -0.034863252 -0.15040003 0.12685421 0.07603641
-0.060987793 -0.05877586 -0.04858331 0.085601315 -0.048089437 -0.07659752 -0.10802087 -0.10997299
0.039149635 -0.052226316 -0.08065862 0.046282776 -0.12428831 0.024609113 -0.017432434 0.10914769
-0.008667965 -0.0053222068 -0.10022901 0.09505632 0.13897695 0.09983995 -0.04268256 0.054363895
-0.08859885 0.025000447 -0.0019066716 0.10804847 0.09932166 0.043108337 0.041833196 -0.1352224
-0.07034033 -0.012686986 -0.11936013 -0.12700316 0.082685135 0.10895248 0.08550022 0.022921467
-0.008217337 0.027925078 0.11905012 -0.098313265 0.09589252 -0.03278964 -0.027773386 0.093842514
-0.082618736 -0.013134975 -0.1009555 0.10021302 0.07845272 -0.13003375 -0.016678654 0.10490842
0.069532394 0.082857005 0.03902906 -0.08325092 0.09987192 -0.11917902 0.031270184 -0.006974323
0.10626454 -0.095337205 -0.011279273 -0.10685024 -0.107721046 0.071191184 -0.08788371 0.03591187
0.13589367 -0.082135946 -0.12044867 0.12249454 0.08017383 0.1708102 -0.10680359 -0.02490219
0.043974116 0.09932092 -0.099484935 -0.034325175 0.03721517 -0.1038542 0.121777005 -0.12509316
-0.024027456 -0.05275079 0.1262681 -0.06003167 -0.044870656 -0.0884422 0.08811168 0.12618446
-0.018827036 0.13188535 -0.05331645 0.013286261 -0.006846496 -0.107753396 0.10953214 0.1264726
-0.12639774 0.0765165 0.06093471 0.039496742 0.006803399 -0.15430745 0.08745015 0.088947535
-0.046125915 -0.020476114 -0.093699366 0.053011887 -0.035616882 -0.11639618 0.14440292 0.0014700461
0.105595306 -0.0073015043 0.13706683 0.076680325 -0.13466085 -0.026950661 0.03958133 -0.07816615
-0.04997152 -0.051331967 -0.06796851 -0.0858787 -0.054606374 -0.11130373 0.03514098 0.049059555
0.13601626 0.035155214 0.078589715 -0.0024350043 0.13509774 -0.031646155 -0.0069646337 -0.042114597
-0.024584051 -0.07303137 -0.057158396 -0.026107578 -0.09292431 0.029839482 0.004324675 -0.03090576
-0.1381407 -0.16634306 -0.11385221 0.102468885 0.10857523 -0.048273508 0.08445321 0.12518284
-0.014740076 0.1318175 -0.10886792 -0.10653359 -0.0790117 -0.13960291 -0.0070189806 0.0026105405
-0.067820966 0.0837723 -0.016588517 -0.077831574 -0.10286541 0.11515457 0.011823733 0.053920176
-0.008239769 0.015352054 -0.12623723 -0.1244578 0.002377064 0.080879495 -0.14983684 -0.032800183
0.027700739 -0.103325725 0.050087888 0.08013378 -0.027195701 -0.008336064 -0.14222084 0.037022173
0.089480095 -0.012728505 0.16242398 0.08491632 0.005539525 0.09093495 -0.11412835 -0.012006017
0.0070086913 0.056566413 0.01343926 -0.02775436 0.027122617 -0.06398813 0.01585982 0.14287578
-0.17347549 -0.015556806 -0.07275606 0.033073127 -0.006131756 0.10672604 0.019625904 -0.018940376
-0.14438128 -0.069983184 0.13920471 0.0073869997 0.04749796 0.09180459 0.16172537 -0.10358884
