Emotions/opensmile_preds/AttenVec/MSP-Podcast/Model/atten_w1_dom.npy (npy, 67728 bytes, 1 tensors)

array f4 [130, 130]
00000000: 4133 eebd 48f9 393d 6929 273d f4e0 26bd
00000010: 7f34 01be 1263 d4bd 13b0 56bc f9d0 18bc
00000020: 95de e5bd f43f 263c 9851 3fbd ae85 fd3d
00000030: 7b67 533d 563e 4e3d e015 0fbe be79 0f3e
00000040: fd82 85bd 94d6 023e 851c f6bd 9c99 4d3d
00000050: 4bba 893d 93c7 9ebb d29c aabd 610f 04be
00000060: 48c6 d6bd 7e52 bd3d 253c 52bd 1e84 7c3d
00000070: babd acbd 12b3 c73b 8578 dd3d 4c44 b3bc
00000080: 0bbf 40bd d772 f73c 14b6 e23c 7732 66bd
00000090: c90e 3dbc 9233 3a3d 0f7b b4bd 2493 173e
000000a0: 7c7e 4cbd f2e4 efbc 5b3f 863d b591 20be
000000b0: 060b e5bd 1f6f d5bd 3904 953d a23d a3bd
000000c0: ea04 adbd 2aec d03c fbe2 0f3e 925a 8f3d
000000d0: dffb 12be d8a7 823c be33 e1bd 5b09 b33d
000000e0: 9d63 dfbd ba03 053d 04f0 aebd 6a8a 48bd
000000f0: e279 073c ff87 8b3d dbdf b93d 3bd5 af3d
00000100: 3c61 b5bd 87ed 5bbd 7f99 1ebd 06e8 c6bd
00000110: d507 99bd 8e02 093c 0ac6 d43d 4dec e1bc
00000120: 5c65 42bc e61b 8a3d 2721 8bbd f2d5 a5bd
00000130: 92d0 bbbd 363d 7cbd fb91 be3c d668 96bd
00000140: eba8 7cbd e0d7 c0bd 7f4f d33d 3a09 48bd
00000150: f9ac 2ebe aac3 babd 2ae0 da3c d251 6ebd
00000160: 7852 99bc 6e15 313d f700 d8bd fd39 863b
00000170: 91ca 013e 2912 013e 40ee 953d d0da 3c3d
00000180: 8219 ccbd 850e 7f3d 1ef9 6fbc 17d1 433c
00000190: 9b9a a1bd 92c7 a33d ff93 a9bd 3344 e6bd
000001a0: 08ac 81bd 9efa 04bd d015 c7bb 1e03 debd
000001b0: 4362 8e3d d621 083e 3dca a53d 266b cb3d
000001c0: 3d78 f63d 9ed0 f7bc 1c66 003e bd9f d73c
000001d0: 9350 933c 6197 60bd a978 e63c d650 0ebe
000001e0: c8c0 b63d 0e76 c1bd 6485 f6bd 8c15 2e3b
000001f0: 6050 453c 6dae 20be dc3e 1a3d 7dcd 7cbd
00000200: fd53 7c3d e81b 883d 9d2d 8fbd b18f c93d
00000210: 31b9 f4bc 353b 18be d177 923c 3025 5bbd
00000220: 5ab3 a23d 3f1a 463d 73fa dfbd 6cca 863d
00000230: 6dfa c63b 93e4 253d 217b 083e 7557 253d
00000240: 4aa0 873d 1518 c03b 5ebf 56bc bad7 ab3b
00000250: d754 e4bd b6d1 93bd cece 52bd f756 b13c
00000260: 372a 2e3e 6e0e 7f3d e12e 243b e31a 52bb
00000270: f0d1 a2bd 5b25 0b3e 389e e93d b49b c6bd
00000280: 0224 bd3d 38be 4dbc d1dd c4bc 000f 113e
00000290: 44f3 213e bc43 29bd 3f30 5abd 72bf cbbd
000002a0: e8d9 09bd 6207 24be 3142 733c c1dc c53c
000002b0: fc22 093e c3ea 643d 732f c33d 9022 50bc
000002c0: bcc6 cabd e361 263c 9a5f 103e 81e1 233c
000002d0: be1b 11bd 8247 793d 7a28 a53d c7b8 ea3c
000002e0: 9415 2d3c a00f a2bd bf21 e0bd f1a5 27be
000002f0: 5f78 ff3d be58 323c d2fa 8c3d 586a f4bd
00000300: aabe c03d dd30 d8bd f418 15be 7350 6abd
00000310: dcc8 003d 7d4f d03d f69d b23d de91 a33c
00000320: 9432 5ebd 835e 13be 71d9 dd3c 30fc c5bd
00000330: 4251 e73d 2e2b a4bc 7151 873d 62e2 5fbd
00000340: 33f5 313d b8c4 d2bd 1914 9a3d c004 bc3d
00000350: 3a90 98bd 90e8 00be 37f9 ec3d a1b2 00be
00000360: bfd4 b7bb 07ff 1e3e ffa8 16bd f0e0 36bd
00000370: ad25 d43c beaa 3bba 0a97 0c3e db4c 54bc
00000380: f68b 063d 0595 2ebd cb4a f33d 122e ac3d
00000390: 3006 183e 21a2 11be c520 d3bd 66ad 26be
000003a0: 6c6e 0cbe 792d 84bd a61b 6b3d ff01 b7bc
000003b0: e95d ba3d a394 99bd cc9f 47bd 0b53 713d
000003c0: ba31 c7bd bd4a 00be 6f69 ce3d e3d1 003e
000003d0: 19b2 083e 6dea a73c 84e2 aabc 5732 e9bc
000003e0: f8de ddbc 3868 293d 187f f53d e153 033e
000003f0: 24dd f9bd 2639 6fbd 8f4c 07bd f47e 2ebd
-0.1163087 0.04540375 0.040810976 -0.040741876 -0.12617682 -0.10370459 -0.013103503 -0.009327167
-0.11224095 0.010147084 -0.046708673 0.12379013 0.05161236 0.050352417 -0.13973188 0.14011285
-0.06519125 0.12777168 -0.120171584 0.05019532 0.06724986 -0.0048455684 -0.08330692 -0.12896492
-0.10487038 0.0924425 -0.05132689 0.061649434 -0.08434625 0.006094345 0.10814003 -0.021883152
-0.047057193 0.030206127 0.027674712 -0.05620047 -0.01153917 0.045459338 -0.08812534 0.14802223
-0.049925312 -0.029283974 0.06555053 -0.15680583 -0.11183743 -0.10421585 0.07276196 -0.0797074
-0.08448203 0.025503237 0.1405143 0.06999697 -0.14353894 0.015949175 -0.10996197 0.08742019
-0.109076716 0.032474257 -0.08541873 -0.048960127 0.008268805 0.068130486 0.090759 0.08585592
-0.088564366 -0.05369332 -0.038720604 -0.09712224 -0.07472197 0.0083624255 0.103893355 -0.027578497
-0.011864986 0.067436025 -0.06793433 -0.080974475 -0.09170641 -0.061581813 0.023262968 -0.073442146
-0.06168453 -0.09416175 0.10317897 -0.048836924 -0.17058171 -0.09119351 0.026718218 -0.0581835
-0.018716082 0.043233328 -0.10547059 0.004096268 0.12674929 0.12604584 0.07320833 0.046107113
-0.09965803 0.062269706 -0.0146467965 0.011951706 -0.07890817 0.079970494 -0.08280181 -0.11243477
-0.063316405 -0.03246557 -0.0060755983 -0.10840438 0.06952336 0.13294157 0.080952145 0.09932546
0.120346524 -0.030250844 0.12538952 0.026321286 0.017982757 -0.054831866 0.028133707 -0.13898024
0.08923489 -0.09446345 -0.12037161 0.0026563136 0.012043089 -0.15691538 0.037657604 -0.061719406
0.061603535 0.06645948 -0.06991122 0.0984186 -0.029873462 -0.14866336 0.017879399 -0.05350226
0.07944365 0.048364874 -0.10936441 0.06581578 0.0060723335 0.04050119 0.1332822 0.04036661
0.066223696 0.005862246 -0.013107149 0.0052442225 -0.111489944 -0.072177336 -0.051466756 0.021647913
0.17008291 0.06226962 0.0025052356 -0.0032059483 -0.07950199 0.13588469 0.11407131 -0.09697667
0.092353836 -0.012557559 -0.024031552 0.14165878 0.15815455 -0.041324362 -0.053268667 -0.09948625
-0.033655077 -0.16018441 0.014847324 0.024153115 0.13392252 0.05588795 0.095305346 -0.012703553
-0.09901187 0.010155174 0.14098969 0.010002495 -0.035426848 0.06085921 0.08064361 0.028652562
0.010564227 -0.079131365 -0.109439366 -0.16371895 0.12474131 0.010885416 0.06883778 -0.11934346
0.09411366 -0.10556195 -0.145603 -0.05720563 0.031441554 0.10171411 0.08721535 0.019967016
-0.054247454 -0.14391522 0.027081223 -0.096672416 0.112947956 -0.02004012 0.066073306 -0.054659255
0.04344673 -0.102914274 0.075233646 0.091805935 -0.07449384 -0.12588716 0.115709715 -0.12568142
-0.005610078 0.15526973 -0.03678226 -0.04464811 0.025896871 -0.00071589265 0.13729492 -0.012957777
0.03284832 -0.042622585 0.118795 0.08407225 0.1484611 -0.14222004 -0.10308985 -0.16277084
-0.13713998 -0.06453986 0.057399414 -0.022339819 0.09099943 -0.07499053 -0.04873638 0.058917087
-0.097262815 -0.1252851 0.100787036 0.12580065 0.13349189 0.020497525 -0.020859964 -0.028466387
-0.027083859 0.041359156 0.11987132 0.12824966 -0.12200382 -0.05840411 -0.033031996 -0.04260154
