Emotions/opensmile_preds/AttenVec/MSP-Podcast/Model/atten_w1_act.npy (npy, 67728 bytes, 1 tensors)

array f4 [130, 130]
0.03985471 -0.13882928 0.013478361 0.03093731 -0.16164902 0.09981357 -0.07947128 0.10623929
0.15193093 0.0015157749 -0.003579965 -0.045489814 0.05165233 -0.1501542 0.08140844 0.13266096
-0.1422507 -0.035036735 0.035255175 -0.06321164 0.088118054 -0.11064001 0.11614343 -0.10949786
-0.07788344 -0.0022839697 0.030378781 0.07920225 -0.029641127 0.03847124 -0.017021282 0.014991709
-0.08658467 0.10942647 0.088036455 0.00014047013 -0.08458301 -0.12811218 0.13335945 0.032008264
-0.087265626 -0.07737406 -0.049762532 0.011913107 0.042632222 -0.09728202 0.08574007 0.029778503
-0.07946437 -0.050521757 0.14259222 0.03510274 0.09653123 -0.01074384 -0.10033138 -0.1059402
0.11707174 -0.14586534 0.002145403 0.120819375 -0.004950166 0.14910738 -0.14484012 0.119151615
-0.112101994 -0.14071298 0.16344754 0.00876918 -0.082243994 -0.13499443 -0.030288203 -0.08079327
0.055098854 0.028185287 -0.0092891585 0.08699359 -0.020181209 -0.12635808 -0.0023434418 0.069426596
0.047572795 -0.12897961 0.112750135 0.0016159577 0.032714166 -0.075246364 -0.01085244 0.112861104
0.07622473 -0.028346905 -0.056459043 0.035457853 0.023355931 0.14095876 0.030665232 -0.12535994
0.03844351 -0.1451247 -0.12810285 -0.12247435 -0.011516281 -0.00045744027 0.11715508 -0.13380522
0.045194276 0.03546706 0.065123215 -0.111295454 0.03896272 0.15871875 -0.0072954744 0.09341809
0.15765575 -0.01269578 0.10992214 0.028890558 -0.022940308 -0.09819595 0.14552227 0.120344445
0.020287985 0.03889818 -0.12369607 -0.032596275 0.0396709 -0.053194135 0.08276083 0.10362875
-0.12994926 -0.0172055 -0.018380426 -0.051592886 0.14212579 -0.037164383 -0.056288335 0.03061923
-0.14226577 0.047498345 -0.12809289 0.0024147963 0.022324113 0.04515296 0.07501784 0.0866621
0.113555275 -0.11471627 0.07699604 -0.015000318 0.11786188 0.044124562 0.080838434 0.11447089
-0.07588671 0.1564849 0.044408202 0.07830751 0.11934371 0.114501044 -0.0657431 0.08954381
-0.051252257 -0.04177732 0.024847185 -0.09717415 -0.11529403 -0.04433266 0.08744953 -0.04686182
-0.007937886 -0.014053041 0.028017689 -0.1570297 0.068351395 0.062233336 -0.15549666 0.11900865
0.03493773 0.12728935 -0.12634526 0.12601876 0.033511482 0.119627394 -0.080322 0.07250319
-0.115590334 -0.029100869 -0.10237482 -0.14220744 -0.11515786 0.016739426 0.011919488 0.07669861
0.11827973 0.058147915 0.09250575 -0.002733534 -0.10841208 -0.15180585 -0.13579622 -0.010306251
0.13153611 0.07847019 0.062030956 -0.10444019 0.115072735 -0.1053338 -0.027220072 0.07953502
0.095281705 0.1035404 -0.08369571 0.032348245 -0.10248518 0.06553116 0.009900338 -0.12170773
0.07415967 0.052002076 -0.040171273 -0.09522136 0.058615126 -0.0726762 -0.0826281 -0.0816297
0.07606293 0.07501077 -0.047937077 0.012934803 -0.026902832 0.045408238 -0.0958986 -0.12038024
-0.11969399 0.035686582 -0.053231645 -0.064804085 -0.029089652 0.007039771 -0.027703805 -0.080467485
0.09114139 0.035413384 -0.092004396 0.10040986 0.018622315 -0.05989082 0.10926421 0.0072629517
-0.05928178 0.025293633 0.015093497 -0.11124708 -0.13660087 -0.06675527 0.1381328 -0.02386124
00000000: b13e 233d 4329 0ebe 58d4 5c3c 3e70 fd3c
00000010: 5287 25be 0f6b cc3d d7c1 a2bd fc93 d93d
00000020: c893 1b3e f7ac c63a d99d 6abb 8753 3abd
00000030: 6591 533d 06c2 19be 78b9 a63d 46d8 073e
00000040: 2baa 11be ae82 0fbd bb67 103d 1b75 81bd
00000050: 3d77 b43d 3b97 e2bd 9bdc ed3d 6a40 e0bd
00000060: 5a81 9fbd a7ae 15bb ecdc f83c ca34 a23d
00000070: f3d1 f2bc 0594 1d3d 3770 8bbc c99f 753c
00000080: 4e53 b1bd fc1a e03d 754c b43d 2a4b 1339
00000090: db39 adbd d72f 03be 618f 083e 191b 033d
000000a0: 52b8 b2bd 4b76 9ebd ccd3 4bbd 312f 433c
000000b0: 209f 2e3d cc3b c7bd 7d98 af3d 0cf2 f33c
000000c0: 37be a2bd e7ef 4ebd b203 123e e4c7 0f3d
000000d0: 2ab2 c53d ee06 30bc 8a7a cdbd 2df7 d8bd
000000e0: 4fc3 ef3d b95d 15be e499 0c3b 2670 f73d
000000f0: 0135 a2bb 9baf 183e f850 14be c305 f43d
00000100: bb95 e5bd 1017 10be cb5e 273e 9bac 0f3c
00000110: 8a6f a8bd fb3b 0abe f71e f8bc f176 a5bd
00000120: 56af 613d d5e4 e63c 8e31 18bc b229 b23d
00000130: 1053 a5bc 0364 01be 6e94 19bb 882f 8e3d
00000140: b1db 423d 3b13 04be 8be9 e63d 8bce d33a
00000150: 4aff 053d c41a 9abd 6fce 31bc b923 e73d
00000160: b61b 9c3d c537 e8bc 9941 67bd 413c 113d
00000170: f054 bf3c 7e57 103e a735 fb3c 5b5e 00be
00000180: f176 1d3d 929b 14be 652d 03be d5d3 fabd
00000190: c9ae 3cbc 98d4 efb9 01ef ef3d 3c04 09be
000001a0: a21d 393d e845 113d 525f 853d dfee e3bd
000001b0: 6097 1f3d 2b87 223e e00e efbb fc51 bf3d
000001c0: 8270 213e f601 50bc dc1e e13d e4ab ec3c
000001d0: 50ed bbbc f51a c9bd ca03 153e 2677 f63d
000001e0: fd32 a63c b353 1f3d 5d54 fdbd ac83 05bd
000001f0: f47d 223d 18e2 59bd 837e a93d 4f3b d43d
00000200: 6b11 05be 8cf2 8cbc 8c92 96bc 1053 53bd
00000210: 6c89 113e ae39 18bd 998e 66bd 2ed5 fa3c
00000220: 1eae 11be a08d 423d c82a 03be 8f41 1e3b
00000230: 0fe1 b63c 4ff2 383d f4a2 993d e67b b13d
00000240: ab8f e83d 5df0 eabd 1ab0 9d3d e5c3 75bc
00000250: 9261 f13d f5bb 343d 9f8e a53d b76f ea3d
00000260: 7e6a 9bbd 943d 203e 60e5 353d b05f a03d
00000270: 7a6a f43d 867f ea3d 52a4 86bd bf62 b73d
00000280: e3ed 51bd b21e 2bbd 538c cb3c 3e03 c7bd
00000290: 471f ecbd 2a96 35bd bd18 b33d 2ef2 3fbd
000002a0: e80d 02bc ba3e 66bc 5a85 e53c 65cc 20be
000002b0: d1fb 8b3d 62e8 7e3d 843a 1fbe cfba f33d
000002c0: dd1a 0f3d 2458 023e a760 01be 100b 013e
000002d0: 5643 093d 35ff f43d dc7f a4bd 8d7c 943d
000002e0: a0ba ecbd f264 eebc e4a9 d1bd d49e 11be
000002f0: e2d7 ebbd 1f21 893c f549 433c 2914 9d3d
00000300: a53c f23d 822c 6e3d a873 bd3d 1725 33bb
00000310: 2707 debd fe72 1bbe 2a0e 0bbe 8ddb 28bc
00000320: 67b1 063e fbb4 a03d 2c14 7e3d bde4 d5bd
00000330: 41ab eb3d 3fb9 d7bd a1fc debc 42e3 a23d
00000340: 0e23 c33d fd0c d43d a868 abbd 987f 043d
00000350: c0e3 d1bd 3335 863d 0735 223c e741 f9bd
00000360: 06e1 973d 2100 553d a28a 24bd 6b03 c3bd
00000370: 6a16 703d 42d7 94bd ec38 a9bd 792d a7bd
00000380: e2c6 9b3d 3f9f 993d ab59 44bd 7fec 533c
00000390: 5463 dcbc fdfd 393d 7c66 c4bd ea89 f6bd
000003a0: 1f22 f5bd 182c 123d 6d09 5abd 01b8 84bd
000003b0: 6c4d eebc e1ad e63b 17f3 e2bc 23cc a4bd
000003c0: 56a8 ba3d a00d 113d cd6c bcbd afa3 cd3d
000003d0: d38d 983c 1450 75bd eac5 df3d 0efe ed3b
000003e0: 74d1 72bd 9834 cf3c b74a 773c 82d5 e3bd
000003f0: 19e1 0bbe fdb6 88bd af72 0d3e a678 c3bc
