Emotions/opensmile_preds/AttenVec/MSP-Podcast/Model/atten_w2_dom.npy (npy, 135328 bytes, 1 tensors)

array f4 [260, 130]
00000000: 1cd2 a2bd 657c d33d 527d d03d cb43 4fbd
00000010: ddb4 92bd 0b57 aabd 1dee 473c ea21 eb3c
00000020: 3a86 f53d 59df 06be 9534 073d eff7 0c3e
00000030: be06 9bb8 c64c 193d ec24 04bc aa03 743d
00000040: e5de 8e3d 4c88 5c3d bcbb 103d 73a5 c93c
00000050: ee7b d33d 7a9d 2fbd 5260 a1bd 6306 9e3c
00000060: e09f efbd 5f1f e53d 627b 0f3e fe53 04be
00000070: 470d 9ebd 7bcb bc3d d463 ce3c 029d 01bd
00000080: 0c8f 71bc a3e4 6d3c 84d9 cf3d eeac 5c3b
00000090: 1c94 febd 251e 38bd 9d30 0cbd 6bfb 383d
000000a0: 7df7 f8ba a951 4fbd 8702 ac3c dbd9 0b3e
000000b0: f5d0 57bd 02a5 b93c 2484 e13d e4bf cc3d
000000c0: fc99 cc3d 0246 59bc 1483 c9bc 6728 603d
000000d0: 451e f63c ae60 223d 834f be3d 4459 0fbd
000000e0: f87e 95bc 1211 9438 d694 b8bd 171b 1fbd
000000f0: 2a18 2bbd 6bf0 17bd ea68 203d d96b f9bd
00000100: 81ad cfbd 7c28 0c3e 6c03 413c 11aa d2bd
00000110: e0b5 b8bd 1f71 2e3d aead fabd b639 67bd
00000120: cf90 48bd c00d 1b3e 809c 84bc b43f 0b3d
00000130: 6b5d a8bd 7dac 60bc c096 23ba b6b9 913d
00000140: 4f41 9dbd f1fe 18bd 1fc9 a33d 47d3 5d3d
00000150: 47e3 d6bb 898e 81bc f8f2 093d 4009 8e3d
00000160: c577 b53d d927 a2bd 7938 19bd 97eb f23c
00000170: 53e7 65bc 8973 523d 2f6d 75bd 8ebd eabb
00000180: 7e5f 39bd bc35 38bd ec10 bfbd 83c4 9dbb
00000190: e497 163d b049 2d3c dc39 043e 8e8c 673d
000001a0: a87f 643d 39b0 b0bd 5c03 a83d 698d 49bd
000001b0: 4f61 efbd 996d ae3d 7421 9dbd ed36 8c3d
000001c0: 5862 a6bb 367c e93d 0c65 a53d 273b e9bc
000001d0: 84d0 213d 811b 09bc c26d 9d3d 535b b73d
000001e0: 5f49 ba3d 5add cbbd f005 ecbb 0e34 763d
000001f0: 0a9f 76bd 2191 b73d c4ef f4bd 08ba a8bd
00000200: 4cac a5bd ebb2 e8bd 8ad1 68bc b8bd a5bd
00000210: 247c b73d c344 813d 1ab9 49bd a3fb f53c
00000220: 8e1d 74bd 0339 993d 62c7 863b b60e b83c
00000230: d00f babd 6bfd 8fbd acad 7cbd 4a56 953c
00000240: 577d 90bd a214 f03d 49ab d43d 7352 1bbd
00000250: 6e00 a2bd c2d8 fcbd d996 383d edd1 b03d
00000260: 29e9 cc3c 8c3b e63d 2a69 aa3b b912 debd
00000270: 3c7d e53d 6ca2 6bbd 8e0f 07bd 2442 633d
00000280: 9b81 86bd 5855 f13d 43ad 9f3d ec49 a3bd
00000290: 00f0 063b 2aa9 e13c 9bb3 6fbc 563c a33d
000002a0: 186c 023e ab53 94bd 176a f73d 6f67 cdbd
000002b0: 6885 bdbd d2c9 8abd c40c d23d 1176 083d
000002c0: 1f21 e43d 591f a0bc cbdc 89bd 98e1 1ebd
000002d0: 9cf2 b53d 0880 62bd 9a96 8abd 16f7 4fbd
000002e0: b4ff 943d c4f7 993d dd14 b33c c170 a43d
000002f0: b64b 113c 440b 0abc bc6a dbbc 7e5b be3c
00000300: f0cf aebc 3e5f 17bd 5c16 c1bd 7cff 73bd
00000310: 432e e4bd 73e4 e3bc 4e97 febd 26c5 edbd
00000320: 2eaa 1e3c fae3 5f3c a09e ec3d f0a5 d9bd
00000330: 5460 d9bc b3f7 83bd 2b94 483d 3a79 313d
00000340: f440 713c ce70 6bbd 5a0a b73d f333 d9bd
00000350: 9751 ee3b d8dc 1d3d 2498 c63d f085 ef3d
00000360: d328 ea3c 3d75 713c 6a67 4e3d 6997 8dbd
00000370: 1c28 9b3d 50bf 2bbb a407 1e3d 1867 5abd
00000380: 543d 393d e3ef f33c 1e1f 0cbd 999b 1c3d
00000390: b3ce 9e3d 0eab 81bc 6f30 823d 5b7b a93c
000003a0: ca0d 1c3d 7bfc 903d f85a e1bd 803a 96bd
000003b0: a9a5 a73d 87af afbc 5671 223d 3213 e8bd
000003c0: b2ec 19bc bf97 4ebd 6ed0 43bc 755d 6fbd
000003d0: 0a1f ca3d 7c77 bfbd 8c6e aa3d baf8 3bbc
000003e0: 9253 95bd 3d70 a43c 1480 b5bc f332 0d3e
000003f0: 875a 663d c9c7 9c3d 34fa 9e3d 7774 5bbc
-0.079502314 0.10326461 0.10180153 -0.05060176 -0.07163403 -0.083173834 0.012202767 0.028702695
0.11988492 -0.13171138 0.03300913 0.13766454 -7.392232e-05 0.037426732 -0.0080654435 0.059573807
0.069761075 0.05384092 0.035335287 0.024615025 0.10326372 -0.04287479 -0.078797 0.019290155
-0.117004156 0.11187624 0.1401191 -0.12922665 -0.07717376 0.09218498 0.025194086 -0.031643875
-0.014743578 0.014519843 0.1014891 0.003367241 -0.12430593 -0.044950623 -0.03422605 0.045161646
-0.0018994656 -0.050614987 0.020997299 0.13657324 -0.05268951 0.02266169 0.11011532 0.09997538
0.09990308 -0.01326132 -0.024598636 0.05472603 0.03004373 0.039642982 0.092925094 -0.03499724
-0.01824902 7.0603695e-05 -0.09012763 -0.038844194 -0.04177109 -0.037094515 0.039162554 -0.121787734
-0.10140515 0.13687319 0.011780601 -0.10286344 -0.09019065 0.04258835 -0.12240158 -0.05645152
-0.048966225 0.15141964 -0.016187906 0.0339963 -0.08220943 -0.013712999 -0.000624042 0.071155
-0.07678472 -0.037352506 0.07997345 0.054156568 -0.0065578553 -0.015815036 0.03367898 0.06935358
0.08860735 -0.079177566 -0.037407372 0.029653354 -0.014032203 0.051379714 -0.05991858 -0.00716371
-0.045257084 -0.04497312 -0.093293995 -0.004814686 0.036765948 0.0105766505 0.12912697 0.056530528
0.055785805 -0.08627362 0.08203766 -0.049207125 -0.11688482 0.08516998 -0.07672396 0.06846414
-0.0050776415 0.114006445 0.08075914 -0.028470589 0.039505497 -0.008368374 0.0768695 0.089529656
0.09096026 -0.09954329 -0.0072028562 0.060108237 -0.060210265 0.08963228 -0.11959794 -0.08238608
-0.08089504 -0.11362251 -0.014210114 -0.080928266 0.08959225 0.063119434 -0.049248792 0.030027216
-0.059598498 0.07481577 0.0041131238 0.022467952 -0.09085047 -0.070307575 -0.061689064 0.018229622
-0.07055157 0.117226854 0.103842326 -0.037920427 -0.07910238 -0.12346031 0.045065735 0.0863379
0.025013523 0.112418264 0.005200525 -0.10843415 0.11205527 -0.057527944 -0.03297382 0.055483
-0.06567689 0.11783856 0.07796719 -0.07973084 0.0020589828 0.027546484 -0.014630224 0.079704925
0.12736547 -0.07242521 0.12080782 -0.10029494 -0.09253961 -0.067767754 0.10256341 0.033315722
0.1113913 -0.019546198 -0.06731566 -0.03878936 0.08884165 -0.05529788 -0.06767006 -0.05077275
0.07275334 0.07517961 0.021860534 0.080293186 0.008868149 -0.0084255375 -0.026784293 0.023236986
-0.021339387 -0.036956064 -0.09428093 -0.05956982 -0.11141636 -0.027818894 -0.12431203 -0.11609869
0.009684129 0.013665194 0.11553693 -0.10627353 -0.02653519 -0.06443729 0.04896943 0.0433285
0.014724959 -0.057480626 0.08937521 -0.10605612 0.00727291 0.03854069 0.09696987 0.116954684
0.02858392 0.014737424 0.050391592 -0.06913645 0.0757601 -0.002620656 0.038581505 -0.053320974
0.045224503 0.029777473 -0.034209363 0.038234327 0.077542685 -0.015828636 0.06356894 0.020688703
0.038099088 0.07079407 -0.11003679 -0.07335377 0.08185894 -0.021446003 0.039658867 -0.11331786
-0.0093948115 -0.050437685 -0.011951549 -0.058438737 0.098692015 -0.09348962 0.083218664 -0.011472875
-0.072913304 0.02007305 -0.022155799 0.13788967 0.056238677 0.076552935 0.07762566 -0.013394467
