Emotions/opensmile_preds/AttenVec/MSP-IMPROV/Model/atten_w2_val.npy (npy, 135328 bytes, 1 tensors)

array f4 [260, 130]
000000 ab bd c2 3d 78 a3 db bd f1 90 81 3d f6 64 97 bd
       0.095088325 -0.107245386 0.063264735 -0.07392304
000010 95 88 0e bc fc b5 12 bd 7d be c6 3d 58 95 b0 3d
       -0.008699556 -0.035818085 0.097043015 0.08622235
000020 a4 16 53 bd c8 12 87 3d 5a 49 5e bd 2c 31 c6 bd
       -0.051535264 0.06595379 -0.054269172 -0.096773475
000030 81 93 f0 3d 75 2c 15 bd 97 9b 80 bb 5b 76 7a bd
       0.11746884 -0.03641935 -0.0039247978 -0.06114803
000040 fa 80 d1 bd ac f2 f6 3d 2d 9e d2 bc 7b 44 10 bc
       -0.102296785 0.12058005 -0.02571019 -0.0088053895
000050 e0 f8 8a bd f0 37 a2 bd a8 34 a3 bd 12 15 aa 3d
       -0.067857504 -0.079208255 -0.07969028 0.083048
000060 4c b7 e0 ba 64 16 85 3d 94 0c ca bd 39 b3 23 bd
       -0.001714447 0.06498411 -0.0986568 -0.039965842
000070 34 31 27 bc a6 78 b8 bc e7 a5 9b 3d 54 88 c1 bc
       -0.010204602 -0.022518467 0.07600003 -0.023624577
000080 10 37 b4 3d b2 07 f0 bd 57 2d 82 3d 57 a0 f7 bd
       0.08799565 -0.11720218 0.06356304 -0.12091129
000090 19 f2 94 bd 77 72 31 bd bd 09 99 3d 3c 46 f1 bd
       -0.07272739 -0.043322053 0.074725606 -0.11780974
0000a0 9e 46 b5 3d ce db de 3d 78 59 46 3d fc f3 90 bd
       0.0885136 0.10881768 0.048425168 -0.07077786
0000b0 dd 6b ab 3d e1 d0 15 bd c1 5f 51 bc 9e 94 2f 3d
       0.08370183 -0.036576156 -0.012779177 0.04286634
0000c0 79 8e 8f 3d 9b 06 e7 bd 45 a0 f5 bd 85 ad c4 bd
       0.070095964 -0.11280557 -0.119934596 -0.09603409
0000d0 2d 0c ba 3d 9c fd c7 bd 66 f9 e2 3d f4 c9 fb bd
       0.090843536 -0.09765169 0.11082725 -0.12294379
0000e0 74 35 ef 3c f6 67 14 bc e1 d4 a0 3c cd ac f6 3d
       0.029200293 -0.009057989 0.019632759 0.12044678
0000f0 99 e7 0a bc d1 fc 82 3d e6 91 cb bc 93 d0 b6 bd
       -0.008478069 0.06395877 -0.024849843 -0.08926501
000100 de 32 93 bd 7c 90 9d 3d 49 ef ba 3d de f7 0c bd
       -0.071874365 0.07693574 0.09127671 -0.034416072
000110 06 95 6f 3d f8 28 b7 3d 58 aa ca 3d 57 98 cd bd
       0.05849173 0.08943361 0.09895772 -0.10038822
000120 38 e3 4c bd dd cb a0 bd a9 07 cf bd 49 40 3a bd
       -0.05002138 -0.07851384 -0.10108883 -0.045471463
000130 94 7a 95 3c 5a b3 f9 3c 5c 94 85 3d 90 c3 57 bd
       0.018246926 0.03048103 0.06522438 -0.052676737
000140 ef 5a 02 3c ca 2e 80 bd fa 17 7a 3d c6 ce e4 3d
       0.007956251 -0.06258924 0.061058022 0.111722514
000150 b6 fb 5a bc bd e0 85 bd 8d 11 b4 bd bc 08 fb bb
       -0.013365677 -0.06537006 -0.0879241 -0.0076609533
000160 94 6e 8e 3d 50 74 64 3c 83 08 d2 3d 37 44 74 3c
       0.06954685 0.013943747 0.1025553 0.014908842
000170 02 8c bf 3d b7 e0 ab 3d d7 54 20 bd 5e cb 02 3d
       0.09352876 0.0839247 -0.03914341 0.031932227
000180 38 4f c9 3d 27 ef 5b 3d 88 f8 ca 3d 4c 4f 01 3d
       0.09829563 0.05369487 0.09910685 0.031569764
000190 47 30 ec bd 86 36 26 3d 34 3f 70 3c 37 26 de 3c
       -0.11532646 0.04057934 0.014663506 0.027117832
0001a0 7a d5 d0 3b 09 20 5f 3d b5 76 d1 bd 0e 65 e0 3d
       0.0063731046 0.05447391 -0.1022772 0.10956775
0001b0 40 6b e0 bd 63 42 4d 3d 2c 5f 9e 3d d6 9a 5f bc
       -0.10957956 0.05011214 0.07732996 -0.013647756
0001c0 a9 bf dd 3c 86 24 dc bb 3e 71 91 bc e2 ae c5 bd
       0.02706893 -0.006718221 -0.017754193 -0.09652497
0001d0 9b 0b 4a bd 7a 5a 38 bd 92 89 83 3d b5 e2 ff bc
       -0.049327474 -0.04500816 0.06422724 -0.031236032
0001e0 cf 00 6d bd 14 0d 6b bd b8 38 9d bd 74 fa 82 bc
       -0.0578621 -0.05738552 -0.07676834 -0.015988566
0001f0 77 be d3 bd 0c 43 0f bd 59 d0 f8 bd f8 d6 ed bd
       -0.10339063 -0.03497605 -0.12149114 -0.11613268
000200 98 11 70 3d da 09 7c bd cd c0 74 bd 4a d8 1a 3d
       0.05861053 -0.061532833 -0.05975418 0.037803926
000210 44 94 8b 3d fd f7 de bd 3b 3c 16 3d 24 cb 8f bc
       0.06815389 -0.10887144 0.036678534 -0.01755292
000220 bd 4a 4e bd e6 41 c4 3c 6e a7 d7 3d 7c 17 d3 3d
       -0.050364245 0.023957204 0.105299816 0.10307214
000230 a8 09 27 3d bc b6 cb 3d 1e 2c 27 3d 29 79 44 bd
       0.040780693 0.09946963 0.040813558 -0.04796711
000240 2f 0c b4 bc ae 6b b6 3d c2 dc 1c bc f1 bd ec 3d
       -0.021978466 0.08907257 -0.009574117 0.11559666
000250 75 b2 dd 3d 85 93 54 3c b2 94 ef 3b da 05 07 3d
       0.108250536 0.0129746245 0.007311427 0.032964565
000260 39 33 04 be 4e ae de bd 61 25 10 3d 62 27 e8 3c
       -0.12910165 -0.1087309 0.035191897 0.028339092
000270 c5 90 cb bd 0f 9c 32 3d 2f 67 bd 3d de 7f f0 bd
       -0.09939722 0.04360586 0.09248196 -0.11743139
000280 19 c3 f6 3d b7 11 0a 3e 57 60 9f 3d f7 3e 40 bd
       0.12048931 0.1348332 0.07782047 -0.046935048
000290 54 c4 fb 3d f2 58 99 bc 16 b4 88 3d 3e a2 1a 3b
       0.12293306 -0.01871917 0.06674974 0.002359524
0002a0 3f 57 a7 3d e1 b2 80 3d 0a 0e b6 bd ef 51 9c 3d
       0.08170938 0.062841184 -0.088893965 0.07632815
0002b0 64 de df 3d 6e 13 d9 bd a9 fe a2 3d 38 f1 67 bd
       0.109310895 -0.10599409 0.07958729 -0.05662653
0002c0 04 96 6b 3d e7 1e 9b 3c 37 8b 45 3d 3b cd d6 3d
       0.057516113 0.018935634 0.04822847 0.10488363
0002d0 f0 b5 d4 bd 2e c6 7d 3d 31 53 71 bd e1 03 e0 bc
       -0.10386264 0.061956577 -0.058917228 -0.0273456
0002e0 4f 75 a3 bd d5 55 e3 bc a9 a2 02 be 3d 12 34 bd
       -0.07981359 -0.027750889 -0.12757362 -0.043962706
0002f0 71 1f c6 3c 08 f3 ac 3d be 6d 1a bd be 5c 81 bd
       0.024184914 0.08444792 -0.037702315 -0.06316517
000300 73 91 97 3d 51 ef 8c bd 0d 31 71 bd a7 5a c0 bd
       0.07400789 -0.068815835 -0.05888467 -0.093922906
000310 50 e6 8f 3c 6c 54 bc 3b 74 dc b5 3d 2c 5a 7a bd
       0.017565876 0.0057473686 0.08879939 -0.06112115
000320 0d 7d 67 bc 69 93 85 bd 76 02 5c 3c ba 9b aa bd
       -0.0141289355 -0.06522257 0.013428321 -0.08330484
000330 ec 63 13 bb 5f 77 7b bd 57 9c b3 b9 19 13 8a 3d
       -0.0022489978 -0.061393138 -0.00034258023 0.06741924
000340 0a dd 4b bd 3a 37 37 bd f9 88 96 bc 52 01 a3 3d
       -0.049771346 -0.044730403 -0.01837586 0.07959236
000350 09 76 8e bd c1 65 d5 3d 84 3a 8b 3d 98 9e ed 3d
       -0.06956107 0.10419799 0.0679827 0.11602515
000360 5d 08 b6 3d 1d 2a c3 3d 07 85 23 3d ab f2 7c bd
       0.08888314 0.09529517 0.039921787 -0.061754864
000370 49 d5 92 3d b2 68 29 bb fd c7 af bd ac fa 46 3d
       0.07169587 -0.0025849757 -0.085830666 0.048578903
000380 03 c6 00 be cd 08 e0 3d 9a 13 64 bc 49 3e a3 3b
       -0.12575535 0.109391786 -0.013920689 0.00498179
000390 50 d8 96 3a fc ae 95 bc 00 7f 14 bd 02 ce e4 bd
       0.0011508558 -0.018271916 -0.03625393 -0.11172105
0003a0 5f 48 d5 bd 02 5c 23 bd 49 1f e9 bd 11 6b d9 bd
       -0.10414194 -0.039882667 -0.1138292 -0.106161244
0003b0 8a f6 f8 3d ce b5 fa bd f2 9f a0 3d 4d 4f f8 bd
       0.121563986 -0.12241708 0.07843007 -0.121245004
0003c0 6f 9d d0 3d 3b f7 8d bd 94 27 53 ba 70 b2 82 bb
       0.10186278 -0.06931921 -0.0008054909 -0.0039885566
0003d0 9f 3c a9 3d 54 74 51 bd f3 cc 01 3d 7c 5a 0d 3d
       0.08263516 -0.05113633 0.031689595 0.03451012
0003e0 6f 28 80 bd 61 a1 44 bc 77 2a df bc 73 f3 10 3c
       -0.06257712 -0.012001366 -0.027241929 0.008847105
0003f0 4e af c8 bd 84 62 88 bd e3 bf cf bd 26 b3 87 bd
       -0.09799062 -0.06659415 -0.10144021 -0.06625967
