Emotions/opensmile_preds/AttenVec/MSP-IMPROV/Model/atten_w2_act.npy (npy, 135328 bytes, 1 tensors)

array f4 [260, 130]
000000 2b 2f 76 bd e5 fb b1 bd 6f 8c ee bd 7c 75 02 be
       -0.060103577 -0.08690623 -0.11647879 -0.12740129
000010 ad 95 0f 3d 5b 6f be bd 50 c3 0f bd c9 b4 de bd
       0.03505485 -0.09298583 -0.035098374 -0.10874326
000020 f1 9f d4 3c 05 f9 bc bc 96 35 e7 bd 04 27 19 3d
       0.025955172 -0.02306796 -0.112895176 0.037390724
000030 f0 a2 c4 3d fd 19 fb 3d 79 78 d4 3d 8e 67 b1 3b
       0.0960139 0.12260816 0.10374541 0.005413956
000040 18 ba 87 bd bb 0d 0b 3d 78 3c ad bd 67 e3 d9 3d
       -0.066272914 0.03394864 -0.08458799 0.10639077
000050 b0 a5 b7 bd 7a d9 a4 bd 89 10 92 bd bb d4 b5 bc
       -0.08967149 -0.08049293 -0.0713206 -0.022196164
000060 b3 c8 da 3d d2 6e 7e 3d 1d 2b 30 3d 0c 97 22 3d
       0.106828116 0.062117405 0.043009866 0.03969483
000070 eb 98 f3 3a ea f2 a5 3c c6 69 ff 3d 58 34 46 3d
       0.0018585002 0.020257432 0.124713466 0.048389763
000080 37 ba 07 bd 88 1e ad bd c8 43 eb bd f6 74 d9 bd
       -0.033136573 -0.08453089 -0.114875376 -0.10618012
000090 70 7d d7 bc 7c 55 eb bd ee fc b9 3b dd 3b 50 bd
       -0.02630493 -0.11490914 0.0056759035 -0.05083834
0000a0 ea cd 31 bc 5e 84 91 bd a0 0b 12 3d 94 aa 76 bc
       -0.010852316 -0.07105325 0.035655618 -0.015055317
0000b0 8e 10 9a bc c6 ee dc ba 15 e5 f5 bc 75 67 f2 bd
       -0.018806722 -0.0016855828 -0.030016461 -0.11836139
0000c0 16 97 b0 bc be 3c 38 bc e3 ca fe bd b5 c6 f3 3d
       -0.021556418 -0.011244951 -0.12441041 0.11903135
0000d0 ea 7d f9 3d 20 80 dd bd ba d9 40 3d f2 4d 05 3d
       0.12182219 -0.108154535 0.04708264 0.032545038
0000e0 ba 53 f1 bc e7 af da 3d 61 6a ba 3c 65 75 0f 3d
       -0.02945887 0.10678082 0.022755804 0.035024066
0000f0 df d1 9e bd 4e 7e fd 3d f8 d4 a0 3d fe e1 3f 3b
       -0.077548735 0.12377606 0.078531206 0.002927899
000100 5e 48 b4 bd 5b d6 cc bb 5f 18 ef bd a4 b0 c2 bd
       -0.088028654 -0.006251139 -0.1167457 -0.09506348
000110 b7 81 40 bc e5 4c 12 3d 00 fc dd bd 05 77 c4 3d
       -0.011749676 0.035717864 -0.10839081 0.09593014
000120 f9 b4 75 3c c9 78 c6 3d 0f 44 17 3d 88 c9 1d bd
       0.0149967605 0.09691007 0.03693014 -0.038522273
000130 a1 8f f3 bd 70 10 a2 3d 66 5f 00 3d f8 81 9c 3d
       -0.118926294 0.079132915 0.03134098 0.07641977
000140 d0 a7 cd bc b7 90 8c 3a f6 ed 4d bd b8 a2 d4 bd
       -0.025104433 0.0010724281 -0.050275765 -0.10382599
000150 48 1d ef 3d 2b ab c3 3d ca df 17 3d 6f 74 2a 3d
       0.11675507 0.09554132 0.037078656 0.041614946
000160 80 80 01 bd 8b 93 2e bd 96 ab 12 bd ce b7 dc bc
       -0.031616688 -0.042621177 -0.03580817 -0.026943114
000170 59 47 fb 3c b3 b5 db bd 38 ae 43 bc 01 28 a2 ba
       0.03067367 -0.10728016 -0.011943392 -0.0012371541
000180 35 8f e4 bb 2e 7a 8b 3c 07 49 b8 3d c9 72 cf 3b
       -0.0069750794 0.017026033 0.08998304 0.006330822
000190 45 e9 83 3d 41 20 f9 bd 27 e5 a3 3b a4 3c 87 bd
       0.06440977 -0.12164355 0.0050016823 -0.06603363
0001a0 06 b9 66 3d 8a 9e ac bb 37 ac d6 3c 31 f3 01 be
       0.056328796 -0.0052679228 0.026205165 -0.12690426
0001b0 11 5d ce bc d8 5c 27 3d 48 03 1a 3d 03 15 d8 3c
       -0.025190862 0.040860027 0.037600785 0.026377207
0001c0 cc 3c 3c bc 77 53 a6 bc ae d5 8b bd e0 64 75 3d
       -0.0114891045 -0.020303471 -0.068278655 0.059910655
0001d0 04 53 05 3e 76 2a af bd de 3b c0 bc 9a 7b d1 3d
       0.13019949 -0.08553021 -0.023466047 0.10228653
0001e0 6e 78 b2 3d 77 9d 93 3d 50 1f f3 bc 8f fa 06 bd
       0.087143764 0.072077684 -0.029678017 -0.032953795
0001f0 b5 4d c7 3d 7f 56 bc bc bf 14 a8 bd ca 54 f7 3d
       0.09731618 -0.022990463 -0.08207082 0.12076719
000200 70 f3 e7 3d ad 1a df 3d 48 04 c4 bd b4 86 04 3d
       0.11325729 0.1089376 -0.09571129 0.032355025
000210 12 53 95 3d 7b c4 0a 3c 48 7f c9 bd f2 88 67 bd
       0.07291235 0.008469696 -0.0983873 -0.056527086
000220 ab 76 34 bd 2a 28 2e 3d c6 7f ba bd b1 8b 42 3d
       -0.044058483 0.042518772 -0.09106402 0.0474965
000230 35 08 f6 bd 88 f3 90 3d 78 a3 e6 3c ad 5a 88 3d
       -0.12013284 0.070777 0.02815412 0.0665792
000240 76 80 48 bd fd 01 67 bd a1 c4 cc bd 53 83 69 bd
       -0.048950635 -0.05639838 -0.099984415 -0.057010006
000250 d0 2b c4 3d 77 06 e9 3d 82 81 92 bd 41 99 16 bd
       0.09578669 0.11378186 -0.07153608 -0.036767248
000260 cf 26 fe bd f3 08 b8 bd 9e a5 7e bd 8e b9 cb bd
       -0.12409746 -0.08986082 -0.062169664 -0.09947501
000270 e8 9f 20 bd c4 67 b6 3d ce 17 ef 3d 7b 1a b7 3c
       -0.039215 0.089065105 0.11674462 0.022351494
000280 33 60 0a bd 02 05 e7 bd e3 b6 25 3d 67 ac e5 3d
       -0.03378315 -0.11280252 0.040457617 0.11214524
000290 e7 db cb bd df c7 bc 3c ea ff 50 3c ed 58 d5 bc
       -0.099540524 0.023044525 0.012756327 -0.02604338
0002a0 fa 36 70 bd 89 aa b5 bc a6 9f 65 bd 39 37 2c bb
       -0.05864618 -0.022176044 -0.056060456 -0.0026278032
0002b0 16 f5 04 bd 00 97 a1 3d 03 0a 8e bd b3 4d cc bd
       -0.032460295 0.07890129 -0.06935503 -0.099757574
0002c0 01 82 00 be e2 3b 68 bd 36 48 53 bd b0 b5 7c 3d
       -0.12549593 -0.056697734 -0.051582538 0.06169671
0002d0 7a f4 c5 3b 69 a8 ba bd aa 70 0f bc cb 3d b7 3d
       0.006041107 -0.09114153 -0.008754889 0.08947333
0002e0 4f a2 a8 3d 70 2c cf bd d9 4f cf 3d 25 d8 67 bd
       0.08234083 -0.10115898 0.101226516 -0.056602616
0002f0 64 6e 75 3d 77 a3 1c bd 91 39 85 bd f4 16 7f 3d
       0.05991973 -0.03824183 -0.065051205 0.06227775
000300 35 db b9 3d 98 cc d8 ba eb 16 06 bc 61 fa 45 bd
       0.090750135 -0.0016540466 -0.008184175 -0.048334483
000310 36 b4 b0 bd d2 a6 8c bd e6 e2 f4 3d 3c d3 b6 3d
       -0.086281225 -0.06867756 0.1195734 0.089270085
000320 c1 f5 4b 3c 1a 49 3a 3d 1a d4 49 bd 23 99 fa 3c
       0.012448729 0.04547987 -0.04927454 0.0305906
000330 1c 9c ee bd f1 9e db 3c 5f f6 37 3d 31 f1 04 bc
       -0.11650869 0.026809188 0.044912692 -0.008114145
000340 8c e1 a7 3d 70 5a c4 3d 88 96 e5 bd d3 5c ea 3d
       0.081973165 0.09587562 -0.11210352 0.11443486
000350 fc 55 ee 3d 41 48 72 3b 96 c1 ce bc 57 0b 91 3d
       0.11637494 0.0036969336 -0.025238793 0.07082241
000360 fc 33 c4 bd cb d0 a8 3d 1d ee a1 3c 6f d8 9b bd
       -0.09580228 0.08242949 0.019766862 -0.07609641
000370 a1 9d 60 bd a7 b8 05 3d 5e fb d0 bd 3f 2f 9a 3d
       -0.054837827 0.0326468 -0.102041945 0.07528543
000380 89 68 01 3e 3d 08 33 bd 41 30 ca 3c af a4 23 bd
       0.12637533 -0.04370903 0.024681212 -0.039951976
000390 27 02 b7 3d 80 ca db 3b 7f 27 98 bd 21 68 c9 3d
       0.089359574 0.0067074895 -0.07429408 0.09834314
0003a0 90 f5 ac bd ba a1 8d 3c d7 ed db 3d e0 67 b5 3d
       -0.08445275 0.017289031 0.10738724 0.08857703
0003b0 c6 ec e0 3d f1 ef 20 3c 46 ac 24 3c 2f e2 a8 bd
       0.10982661 0.0098228315 0.010050839 -0.08246266
0003c0 32 1f 1a 3d 04 64 d7 3d 24 b9 36 bd b2 97 37 bc
       0.037627406 0.10517123 -0.044610158 -0.011205601
0003d0 d6 5e 9c 3d 86 25 8a bd 99 7d 30 3b 69 99 ac 3d
       0.07635276 -0.06745438 0.002693033 0.08427698
0003e0 9a 77 79 3c b7 03 57 bc bc 39 c1 bd 36 e2 02 3e
       0.015226269 -0.013123444 -0.0943484 0.12781605
0003f0 6e fa 0a 3d a4 ac 3b bb 6c bc d5 3d 72 d8 ee bc
       0.033930235 -0.0028636837 0.10436329 -0.029155944
