Emotions/opensmile_preds/AttenVec/MSP-IMPROV/Model/atten_w1_dom.npy (npy, 67728 bytes, 1 tensors)

array f4 [130, 130]
0.13070415 0.1340953 0.031078883 0.042257216 0.12159007 -0.017140267 -0.109436624 0.029654438
0.041011732 -0.1313602 -0.004642195 -0.06276384 -0.023914803 -0.07398885 0.15360506 0.027496945
-0.08155503 -0.1154374 0.09630234 -0.04714885 0.14187798 0.008178102 0.06169085 0.14817837
-0.060188007 0.022806495 -0.07446324 -0.11827581 0.017713906 0.08585302 0.050780196 0.11306306
-0.056600433 0.12852043 0.028864674 0.062504634 -0.026393693 -0.09297212 -0.13345721 0.1171726
0.025528695 0.09266017 0.0029465344 -0.13201766 0.1260723 -0.056501802 0.07250659 0.025795963
-0.032354616 -0.15569785 -0.0031151725 -0.12059342 0.11248251 0.08361226 -0.054316998 0.12520468
-0.07154619 -0.10119039 0.07490842 0.033121068 -0.065837026 -0.0058136713 -0.07999114 0.09567447
0.0024673003 0.049692646 -0.124617726 0.094172545 -0.0893984 0.024412703 0.007132298 -0.057492685
0.010109355 0.13268788 0.119112074 -0.0016096606 -0.11761712 -0.13005742 0.06097282 0.13908032
0.03318322 -0.044356182 0.05213658 -0.08034171 0.013967231 0.09781822 -0.050813958 -0.09825781
-0.06838088 -0.09940542 0.02975411 -0.006948359 0.07802358 -0.047077082 0.0033311679 0.00034242732
0.14058764 0.10087362 -0.14869383 0.0013239827 -0.09800016 -0.091454 0.018150682 -0.067717575
0.044501804 -0.086124755 -0.09743775 0.13948727 0.08155394 -0.11617971 -0.018464215 0.0621901
0.13110377 0.11096451 0.13301674 0.079524346 0.0361729 -0.058648173 0.10386406 0.14276208
-0.12723178 -0.12459501 -0.022790367 -0.11165731 0.034394424 0.04908419 0.072396815 0.13041736
0.01889373 -0.11260496 -0.06069654 -0.023479514 -0.007049366 -0.046165045 -0.05969916 0.019584425
-0.016778544 0.04925764 0.035263557 0.004967951 0.10437601 -0.08081771 -0.06301389 -0.1456929
-0.13287048 -0.05058748 -0.030860992 -0.0024960814 -0.021402905 0.07973049 -0.021811627 0.12112205
-0.13244276 0.09969683 -0.04128749 -0.029431172 0.049450275 0.009533243 -0.06042833 -0.14118828
0.023669241 -0.09586735 0.1065144 0.11190525 -0.09847813 -0.026637157 -0.016352108 -0.1322137
0.10771322 -0.02774179 -0.15289177 -0.011677442 0.06041707 -0.017654192 0.12565479 0.10435437
0.07769204 -0.10352848 0.11933096 0.05556136 0.103222534 -0.11913298 0.03417214 -0.11830608
-0.024639018 0.05467207 -0.01976018 0.08342326 -0.06799892 0.09996912 0.057929803 -0.0629427
-0.0189124 0.05390008 -0.014709513 0.04275053 -0.1383281 -0.058978334 0.10285437 -0.08562817
0.09180342 0.111783594 -0.1107753 0.070587546 0.1525511 -0.104204014 -0.14411898 -0.13447128
-0.104704626 -0.021803638 -0.06637308 0.08239013 -0.13888127 -0.091543086 0.063068435 0.12736548
-0.074315175 -0.0001555238 0.10512525 0.015150783 0.111256786 0.020185577 0.1226377 0.13442461
-0.15374161 -0.10763869 -0.13141765 0.13583392 0.03764625 -0.12131615 -0.01843679 -0.07808672
0.045429803 -0.03693528 -0.12017153 0.029548168 0.14796534 0.13108407 -0.11053936 -0.12503967
-0.030130483 0.13189614 0.0059406245 -0.08148912 0.09152453 0.13037959 0.10857502 0.018708276
0.11322107 0.1467275 -0.025615761 0.035002626 0.07543298 -0.096899025 0.13067956 0.080684215
00000000: 4fd7 053e 4750 093e 2499 fe3c e715 2d3d
00000010: 3704 f93d bf69 8cbc 4f20 e0bd dded f23c
00000020: ebfb 273d 4a83 06be 8e1d 98bb 548a 80bd
00000030: fae8 c3bc 7787 97bd a54a 1d3e 4641 e13c
00000040: 5306 a7bd 726a ecbd 293a c53d 271f 41bd
00000050: 7648 113e 72fd 053c 8baf 7c3d 12bc 173e
00000060: b387 76bd b0d4 ba3c 2f80 98bd 963a f2bd
00000070: c11c 913c b5d3 af3d e5fe 4f3d 9b8d e73d
00000080: dbd5 67bd dc9a 033e 9c75 ec3c 6e02 803d
00000090: 9637 d8bc 2b68 bebd 02a9 08be 30f8 ef3d
000000a0: 8e21 d13c 9dc4 bd3d a51a 413b a32f 07be
000000b0: 1919 013e 6f6e 67bd 567e 943d 0e52 d33c
000000c0: 4686 04bd 426f 1fbe ec27 4cbb aff9 f6bd
000000d0: 3b5d e63d e83c ab3d 807b 5ebd a835 003e
000000e0: cf86 92bd e83c cfbd 9669 993d f5a9 073d
000000f0: 90d5 86bd 9c80 bebb 65d2 a3bd faf0 c33d
00000100: 6eb2 213b 848a 4b3d 9437 ffbd 89dd c03d
00000110: 8216 b7bd 26fd c73c 0db6 e93b 737d 6bbd
00000120: b5a1 253c 55df 073e 08f1 f33d 3ffb d2ba
00000130: 3fe1 f0bd c62d 05be a3be 793d 126b 0e3e
00000140: 21eb 073d d4ae 35bd 2b8d 553d 328a a4bd
00000150: d0d6 643c eb54 c83d 4c22 50bd 643b c9bd
00000160: 460b 8cbd 1295 cbbd e4be f33c 0faf e3bb
00000170: d4ca 9f3d e6d3 40bd b94f 5a3b d187 b339
00000180: 35f6 0f3e d496 ce3d 3243 18be 7d89 ad3a
00000190: 4fb4 c8bd 3c4c bbbd bdb0 943c 83af 8abd
000001a0: 8647 363d 2d62 b0bd 718d c7bd c0d5 0e3e
000001b0: c105 a73d a1ef edbd 4442 97bc 0cbb 7e3d
000001c0: 1140 063e 5c41 e33d 8a35 083e a9dd a23d
000001d0: 092a 143d 1139 70bd aeb6 d43d 3930 123e
000001e0: 0c49 02be ab2b ffbd ddb2 babc 96ac e4bd
000001f0: 2be1 0c3d 810c 493d c844 943d 218c 053e
00000200: 06c7 9a3c 6e9d e6bd ef9c 78bd 1c58 c0bc
00000210: 5efe e6bb 8f17 3dbd 1b87 74bd 846f a03c
00000220: 2873 89bc 61c2 493d 8570 103d 32ca a23b
00000230: 17c3 d53d c183 a5bd 6d0d 81bd 8530 15be
00000240: 330f 08be d134 4fbd 31d0 fcbc 4c95 23bb
00000250: 2555 afbc bd49 a33d 4cae b2bc d60e f83d
00000260: 139f 07be da2d cc3d 121d 29bd a419 f1bc
00000270: 5f8c 4a3d 5231 1c3c b283 77bd a993 10be
00000280: ffe5 c13c 1a56 c4bd 3924 da3d 942e e53d
00000290: e7ae c9bd 2b36 dabc dbf4 85bc 0763 07be
000002a0: c098 dc3d c042 e3bc a98f 1cbe be52 3fbc
000002b0: e477 773d 869f 90bc a6ab 003e beb7 d53d
000002c0: 011d 9f3d bd06 d4bd ca63 f43d 4f94 633d
000002d0: 5666 d33d fefb f3bd 16f8 0b3d 754a f2bd
000002e0: c4d7 c9bc d2ef 5f3d 1ae0 a1bc d0d9 aa3d
000002f0: 0543 8bbd 9cbc cc3d cd47 6d3d 1ae8 80bd
00000300: 2dee 9abc 55c6 5c3d 2b00 71bc 2e1b 2f3d
00000310: e2a5 0dbe 4493 71bd 50a5 d23d d25d afbd
00000320: 6e03 bc3d ccee e43d 29de e2bd 3490 903d
00000330: 5b36 1c3e ea68 d5bd ed93 13be d7b2 09be
00000340: 616f d6bd 8b9d b2bc 9cee 87bd 28bc a83d
00000350: e436 0ebe f17a bbbd 062a 813d 196c 023e
00000360: 8e32 98bd 1a14 23b9 e84b d73d fd3a 783c
00000370: 99da e33d 395c a53c 7929 fb3d 9ba6 093e
00000380: 716e 1dbe ac71 dcbd 5992 06be 0c18 0b3e
00000390: f432 1a3d 9a74 f8bd c008 97bc eeeb 9fbd
000003a0: 9a14 3a3d 7349 17bd 7e1c f6bd 000f f23c
000003b0: 3a84 173e e73a 063e 7662 e2bd 660a 00be
000003c0: 34d4 f6bc c80f 073e 92a9 c23b c5e3 a6bd
000003d0: 3671 bb3d 3a82 053e 955c de3d 1942 993c
000003e0: 73e0 e73d bc3f 163e 25d8 d1bc ea5e 0f3d
000003f0: 9b7c 9a3d ff72 c6bd ddd0 053e c43d a53d
