Emotions/opensmile_preds/AttenVec/MSP-IMPROV/Model/atten_w2_dom.npy (npy, 135328 bytes, 1 tensors)

array f4 [260, 130]
-0.051707797 -0.017136345 0.041516945 0.005735467 -0.08493702 -0.002935037 0.11341494 -0.122540064
0.11654718 -0.063234635 0.01766066 0.056385245 0.08813673 -0.01745316 0.038229905 -0.0505485
-0.045414593 0.009476109 0.0067420607 -0.05765252 -0.06942387 -0.12439462 -0.10541021 -0.040851105
-0.13122775 0.081579596 0.09397759 0.023753805 0.04574587 0.12010589 -0.034763932 0.009177686
0.04456591 -0.039193515 0.06683676 -0.01363324 -0.10998426 0.08661313 -0.05366584 -0.005377981
-0.0067996792 -0.025764158 -0.00070267875 0.0023376022 -0.10907391 0.013435687 0.02312233 -0.07859233
0.091925934 -0.094191514 -0.070194356 -0.0010511843 0.085329905 0.0631604 0.050415736 -0.02206596
0.10017886 -0.06683852 -0.09387825 0.017532984 0.02159211 0.07644863 0.03609536 0.06499236
-0.095891185 -0.048907496 -0.07362954 -0.01687446 0.058539696 -0.1103326 -0.10867555 -0.0010727993
-0.034807228 0.0938832 -0.058557145 0.089427136 0.118690126 0.063532345 -0.09132831 -0.09814249
0.03599559 0.09220248 0.060053114 0.10734241 0.04950872 0.0119284075 -0.04491906 0.052886013
0.1067132 -0.034005128 -0.0116544 0.09985666 -0.067075774 -0.033601545 0.12270862 0.023860637
0.0027484435 -0.057924017 0.09931282 -0.13662055 0.100061625 0.027191572 0.06201209 0.11804438
-0.09100411 0.09769568 -0.13323812 -0.08882548 -0.019549463 0.050361417 -0.07962456 0.14412832
0.088616654 0.04893013 -0.042406768 0.089310646 -0.036933772 -0.037957698 0.08060345 0.09725128
-0.046698853 -0.036458645 -0.06234094 0.114112616 -0.040140748 0.08100636 -0.09036674 0.082941204
-0.07994264 -0.047103677 0.112384774 -0.02883863 0.082740955 0.02412724 -0.03619021 0.06458069
-0.022774337 0.10806562 0.13052996 0.0960235 0.13645144 0.07632815 -0.04298771 -0.066583976
-0.062237985 -0.0035653668 -0.023560787 0.006476034 0.112273276 0.06313487 -0.044877287 -0.07721135
-0.007308109 -0.0942936 0.003311851 -0.082671724 -0.07309541 -0.06773583 -0.02292612 -0.07547794
0.098396964 -0.033308838 0.042198822 0.025039507 0.060563803 -0.01577281 -0.045524936 -0.03022531
-0.013075412 -0.10422874 0.02559368 0.050946467 0.10979467 0.03376179 -0.068618536 -0.00466049
-0.0603036 0.06878793 0.011061569 -0.11306425 -0.057639647 -0.01099045 0.101809174 -0.08301081
0.0038211197 0.06790107 0.052098252 -0.053436924 -0.007501056 -0.09953169 -0.033966772 0.116284974
-0.090489306 0.085716724 0.053474832 -0.079981536 0.08172481 -0.02779075 0.03380045 -0.08695452
0.08819042 0.042454027 0.12882537 0.10112028 -0.07381874 0.017806765 0.031362858 -0.06197903
0.048909944 -0.04632858 0.0647093 -0.091568865 0.0007488711 -0.054552305 0.03249835 0.11562726
-0.048415255 0.06279117 -0.05259616 -0.06359325 0.0036175912 0.020477412 -0.10079872 -0.066696756
-0.0043648877 0.0069418587 -0.024124578 0.08822393 0.058312953 -0.008648855 -0.113819174 -0.067099944
0.05386035 -0.011483058 -0.07176762 -0.028781489 0.024786841 -0.116245925 -0.113677 -0.041676138
-0.00976417 0.06429014 -0.0650221 0.043932494 0.07795359 0.037207954 -0.1383768 -0.12688775
0.08850502 -0.08346601 0.071148515 0.0034509415 0.052648187 0.026039649 -0.044384986 -0.088881955
00000000: 8ecb 53bd 8561 8cbc ac0d 2a3d 96f0 bb3b
00000010: 76f3 adbd c059 40bb 1846 e83d 49f6 fabd
00000020: 4ab0 ee3d 2981 81bd 17ad 903c 37f4 663d
00000030: 0881 b43d eef9 8ebc f696 1c3d f20b 4fbd
00000040: a704 3abd af41 1b3c 81ec dc3b 0c25 6cbd
00000050: 1a2e 8ebd 9bc2 febd 4fe1 d7bd 7d53 27bd
00000060: 9160 06be 3413 a73d 5377 c03d 5797 c23c
00000070: 0560 3b3d 14fa f53d a064 0ebd 015e 163c
00000080: be8a 363d 6189 20bd b6e1 883d f45d 5fbc
00000090: 6d3f e1bd 3a62 b13d b6d0 5bbd c639 b0bb
000000a0: d8cf debb 5b0f d3bc f933 38ba 7532 193b
000000b0: 2462 dfbd 5b21 5c3c 0a6b bd3c 04f5 a0bd
000000c0: aa43 bc3d 7be7 c0bd 0fc2 8fbd e4c7 89ba
000000d0: 72c1 ae3d 3d5a 813d bb80 4e3d acc3 b4bc
000000e0: 932a cd3d a2e2 88bd 3d43 c0bd 55a1 8f3c
000000f0: f0e1 b03c 1991 9c3d bad8 133d b71a 853d
00000100: 9962 c4bd 3a53 48bd 16cb 96bd 4f3c 8abc
00000110: 52c7 6f3d 0ff6 e1bd 4991 debd 2c9d 8cba
00000120: 0692 0ebd d645 c03d 9ed9 6fbd 9325 b73d
00000130: cf13 f33d 3f1d 823d 560a bbbd eefe c8bd
00000140: 1d70 133d a7d4 bc3d 41fa 753d 56d6 db3d
00000150: a8c9 4a3d 5e6f 433c 0cfd 37bd 019f 583d
00000160: 738c da3d f648 0bbd 19f2 3ebc a681 cc3d
00000170: 065f 89bd c6a1 09bd a84e fb3d 6277 c33c
00000180: 3b1f 343b bc41 6dbd 8564 cb3d 42e6 0bbe
00000190: 1ced cc3d dcc0 de3c 6400 7e3d 40c1 f13d
000001a0: 5d60 babd ac14 c83d 936f 08be 22ea b5bd
000001b0: 3226 a0bc c647 4e3d 3412 a3bd 6096 133e
000001c0: a67c b53d f66a 483d b8b2 2dbd 80e8 b63d
000001d0: de47 17bd 8879 1bbd 6c13 a53d ae2b c73d
000001e0: 4c47 3fbd a955 15bd 3759 7fbd e0b3 e93d
000001f0: a06a 24bd aae6 a53d 3312 b9bd 14dd a93d
00000200: f8b8 a3bd c9ef 40bd fd29 e63d fe3e ecbc
00000210: 1774 a93d 7da6 c53c 303c 14bd e142 843d
00000220: 3f91 babc 8251 dd3d a5a9 053e f8a7 c43d
00000230: edb9 0b3e ef51 9c3d e213 30bd 2e5d 88bd
00000240: 42ed 7ebd eea8 69bb 8d02 c1bc e934 d43b
00000250: 88ef e53d db4c 813d 3fd1 37bd fc20 9ebd
00000260: dd78 efbb 011d c1bd a40b 593b cb4f a9bd
00000270: 0cb3 95bd 15b9 8abd 8fcf bbbc 2e94 9abd
00000280: 5984 c93d d96e 08bd acd8 2c3d a71f cd3c
00000290: c011 783d fb35 81bc 5b78 3abd 129b f7bc
000002a0: 413a 56bc e175 d5bd d6a9 d13c 3ead 503d
000002b0: 07dc e03d cd49 0a3d e087 8cbd 06b7 98bb
000002c0: e800 77bd b0e0 8c3d 953b 353c 3b8e e7bd
000002d0: 8d17 6cbd 4a11 34bc 5481 d03d 9201 aabd
000002e0: c06b 7a3b b70f 8b3d fa64 553d ade0 5abd
000002f0: 6bcb f5bb 45d7 cbbd be20 0bbd d126 ee3d
00000300: 7552 b9bd 408c af3d 6d08 5b3d 5ccd a3bd
00000310: 565f a73d 6da9 e3bc 5772 0a3d 3615 b2bd
00000320: 2e9d b43d 46e4 2d3d ccea 033e 2618 cf3d
00000330: 482e 97bd 7edf 913c 5776 003d b9dd 7dbd
00000340: cb55 483d 09c3 3dbd 4f86 843d 7588 bbbd
00000350: e44f 443a 3d72 5fbd fd1c 053d fccd ec3d
00000360: 134f 46bd a898 803d 126f 57bd 2e3d 82bd
00000370: 1c15 6d3b 3fc0 a73c 8f6f cebd 4f98 88bd
00000380: 5507 8fbb 8878 e33b e8a0 c5bc bfae b43d
00000390: 90d9 6e3d edb3 0dbc 071a e9bd b26b 89bd
000003a0: ac9c 5c3d 7023 3cbc e7fa 92bd 28c7 ebbc
000003b0: c60d cb3c 5812 eebd 7dcf e8bd 99b4 2abd
000003c0: e6f9 1fbc 8daa 833d 4f2a 85bd 8ff2 333d
000003d0: 22a6 9f3d 5e67 183d a6b2 0dbe ddee 01be
000003e0: 1f42 b53d 3af0 aabd 50b6 913d 3129 623b
000003f0: a0a5 573d 1a51 d53c 08cd 35bd be07 b6bd
