Emotions/opensmile_preds/AttenVec/MSP-IMPROV/Model/atten_w1_act.npy (npy, 67728 bytes, 1 tensors)

array f4 [130, 130]
000000 e1 28 8c 3d f1 c1 a3 bc 44 43 90 bd 54 c4 dc bd
       0.068437345 -0.01998994 -0.0704408 -0.10779634
000010 10 0a 6f bb 4a 4b b6 bd ac 35 ac 3d ba a7 a7 3d
       -0.0036474504 -0.08901079 0.084086746 0.08186288
000020 71 42 32 3d e1 68 2a 3c 84 20 07 3e 4e cd 15 3c
       0.043520395 0.010400982 0.13195997 0.009143187
000030 8e 05 46 3d 2a ba df 3a d7 1e 1e 3d 72 db 58 3c
       0.04834514 0.0017069031 0.03860363 0.013235914
000040 8d 67 8f bd 1b 21 9a 3d 31 f6 d7 3d 76 66 ff bd
       -0.070021726 0.075258456 0.10545004 -0.12470715
000050 24 e9 08 be d7 21 67 3d 3c 14 14 3d 83 ae cb bd
       -0.13370186 0.056428757 0.03615211 -0.09945395
000060 0d 54 08 3d 4d a1 d7 bd c8 85 14 3e 42 c6 64 bd
       0.033283282 -0.105288126 0.14504158 -0.055853136
000070 3c 26 d7 bc f9 f1 5e bd d7 3e e8 bd 85 22 76 bd
       -0.026263349 -0.05442998 -0.11340111 -0.060091514
000080 75 42 aa bd 18 c1 c2 bd df e9 04 be 04 d6 8a bc
       -0.08313457 -0.09509486 -0.1297984 -0.016947754
000090 3e c8 69 3d b0 11 a9 bd 31 7d 9b 3c 3c e0 66 bd
       0.05707573 -0.08255327 0.018980594 -0.05636619
0000a0 b8 b2 87 3d 96 f0 00 3d 8d e2 5e 3d 5c ee f0 3d
       0.06625885 0.03147944 0.054415274 0.117642134
0000b0 6f 86 f3 3d c3 c1 20 3e b6 9f a5 3d 09 11 bf bc
       0.118908755 0.15698914 0.08087103 -0.023323553
0000c0 81 e8 5f bc 06 9e f2 3c ab 90 ec 3c 75 32 5c bd
       -0.013666273 0.029616367 0.028877577 -0.053759057
0000d0 2a 79 9f 3d f1 87 ba bd 28 fe 11 be 4f b1 0b 3e
       0.07786782 -0.0910796 -0.14257109 0.13641857
0000e0 b7 eb 88 3d 94 8d 87 3d 1c b4 ac 3d 15 16 d8 bd
       0.06685584 0.06618801 0.08432791 -0.10551087
0000f0 46 b2 e2 bd 31 8c fe bd d3 03 0b 3e a5 65 02 3e
       -0.11069159 -0.12429083 0.13575678 0.12734087
000100 5c 0b d1 3c d6 87 5d 3d 29 66 fd bd 6b 72 6e bc
       0.025518112 0.05408462 -0.12373001 -0.014553647
000110 cf 09 9f 3d ed e5 a9 3c 6b d8 a1 bd 5d 7b cc bd
       0.07765543 0.02073952 -0.079026066 -0.09984467
000120 72 6b f3 bd 5e 42 a3 3d 0c 37 9b 3d 57 0e 53 3d
       -0.11885728 0.07971643 0.07578859 0.051527347
000130 28 9b 07 3e 81 9b 69 3a b0 5a 17 3e df e5 3d bd
       0.13242781 0.00089114165 0.14780688 -0.0463618
000140 63 86 8f 3b 6c dd 69 bd 3f 6f 8c bd d5 86 fc bd
       0.004380034 -0.05709593 -0.06857156 -0.12330405
000150 ec 5b 93 bd 62 2f 04 3e 3c c0 e3 bd 1e 9d 8e 3d
       -0.07195267 0.129087 -0.1112065 0.069635615
000160 ef 48 a8 bd 0e da e8 bd 2d ec 4e 3d ab 1a a2 3c
       -0.08217036 -0.11369716 0.050518204 0.019788107
000170 84 fb e6 bb 85 87 ab 3b 54 d8 63 3d 6c 07 9f 3c
       -0.007049026 0.005234661 0.05562623 0.019412719
000180 32 0b 86 bd 66 ac ce bd db 2d 06 be 0a 04 94 3c
       -0.06545104 -0.10091476 -0.1310343 0.018068332
000190 0c ff 4c bd 73 a1 a5 bd 54 82 7d bd b7 08 86 bd
       -0.05004792 -0.080874346 -0.06189187 -0.06544631
0001a0 2e 54 03 be 43 03 33 3c 67 16 78 bd cd aa c2 bd
       -0.12825081 0.010926071 -0.06056824 -0.09505234
0001b0 93 e0 6e 3c 4e c0 95 bd 4a 30 99 3d c5 8f e8 3d
       0.01457991 -0.0731207 0.074799135 0.11355547
0001c0 60 bc f9 3d 00 80 39 3d 3c a1 ae bd 58 93 ec bb
       0.12194133 0.045288086 -0.08526847 -0.007219713
0001d0 5c a7 85 bd cc e7 5c 3d 36 6f e4 3c 09 f2 b7 3d
       -0.06526062 0.053931996 0.02788506 0.089817114
0001e0 45 2f 4c bd 54 e3 79 3d eb 48 60 bd 6a 42 92 bd
       -0.049849767 0.061007813 -0.05475704 -0.07141574
0001f0 2b bc db 3d 00 e1 0c 3e 8f ca 87 bd ea 10 05 be
       0.107292496 0.13757706 -0.06630432 -0.12994733
000200 2c 52 32 bd 6c 68 eb 3d 28 14 9e 3d 0d 5a 90 3d
       -0.043535396 0.11494526 0.07718688 0.07048426
000210 03 ea 02 bd a9 a8 eb bd 57 7f df bd d1 0f d1 bd
       -0.031961452 -0.11506779 -0.1091296 -0.10208095
000220 f3 82 a1 3c 7f 63 34 3d 5b 48 84 bc bc a0 52 3c
       0.019715762 0.0440402 -0.016147783 0.012855705
000230 de ff ca bd 3b c4 e0 3d bb 0f f8 bc 04 56 11 be
       -0.09912084 0.10974928 -0.030280938 -0.14192969
000240 8b ed a4 3d bd d5 1c be f9 b7 63 3d 48 bd b2 bd
       0.0805312 -0.1531591 0.055595372 -0.08727509
000250 d8 84 d0 bd 65 99 cd bd 09 fb 4e bd 68 a4 93 3c
       -0.10181588 -0.10039023 -0.050532375 0.018022731
000260 e9 b7 d5 bd 90 2a 0c bd d3 2d bd bc f7 89 8d bc
       -0.10435469 -0.03422028 -0.02309314 -0.0172777
000270 a4 27 e8 3d d9 fc c4 3d d8 75 ae 3d 86 9a 5d 3d
       0.11335686 0.09618539 0.08518571 0.054102443
000280 62 24 9a 3d 3d 05 9d bd 67 60 ab 3c 2e f6 5d 3d
       0.07526471 -0.07667015 0.020919992 0.054189853
000290 b3 6a 31 bd c8 ab fd bd 29 12 e2 bd 54 8d e6 3d
       -0.043314647 -0.1238628 -0.1103862 0.11257425
0002a0 cd 2e 99 3c 2a e5 a3 3d a8 55 10 3e 10 38 81 bd
       0.018699074 0.08002694 0.14095175 -0.06309521
0002b0 02 09 03 3e 4c cf 06 3e 2c b5 23 3d 45 54 a2 bc
       0.12796405 0.13165015 0.0399677 -0.019815573
0002c0 60 e8 98 bd 3d 8d 49 3d 2e 73 e2 3b 23 a2 17 3d
       -0.07466197 0.04920696 0.006910703 0.03701986
0002d0 41 fd f0 3d 68 1e fd 3d d5 63 f4 bd d1 44 a7 3d
       0.11767054 0.12359315 -0.11933104 0.081674226
0002e0 06 d8 be bd ab 10 1e 3e 06 bf ec 3d 74 f9 c1 3d
       -0.09318547 0.15436046 0.11559872 0.094714075
0002f0 65 36 0e bd 5a 44 f6 bd 4b af 12 be 3d 08 2b 3d
       -0.034719843 -0.12024756 -0.14324681 0.041755904
000300 b0 65 dc bd fc 56 c7 bd 98 f9 0f bd bb f1 f8 bd
       -0.10761583 -0.09733388 -0.03515014 -0.121554814
000310 12 a8 0f be 5a 62 3e bd a9 e7 09 3e c8 c0 63 bd
       -0.14028957 -0.046480514 0.13467278 -0.055603772
000320 e0 e6 b2 3d a8 e8 d8 3d 40 8e 15 3b 7a fd a3 bd
       0.08735442 0.10591251 0.0022820383 -0.08007331
000330 38 37 04 bd 7e 0f 42 bc 4f e0 c5 bd ed 52 16 3d
       -0.032279223 -0.011844514 -0.09661924 0.036700178
000340 b8 4e c6 3d 04 5c e6 3d dc 7e ff bd ce 3a 63 bd
       0.09682983 0.11248019 -0.124753684 -0.055476002
000350 e2 bc 08 be e1 95 65 3c 05 b3 04 be ba 82 79 3d
       -0.13353303 0.014012785 -0.12958916 0.060915686
000360 b7 49 e5 3d e2 ce 84 bd c5 c9 d8 3d 05 91 fc bd
       0.111957006 -0.06484772 0.105853595 -0.12332348
000370 45 01 d3 bb 07 1e d5 3d 29 11 0c 3e e3 84 8e bb
       -0.0064393603 0.10406118 0.13678421 -0.0043493374
000380 9e 6d 02 bd 9f 9a 98 bd 33 c4 bc 3d d8 53 e2 bd
       -0.03184282 -0.07451367 0.092171095 -0.11051148
000390 16 27 03 3e da a1 fe bd b9 a3 d7 3d bf 23 ae 3d
       0.12807879 -0.124332145 0.105292745 0.08502912
0003a0 fd a7 8d 3d cc f5 97 bd c1 0f d6 bd 86 65 90 bd
       0.06916807 -0.07419929 -0.104522236 -0.07050614
0003b0 b5 7d c9 3d 90 dc 07 3e 30 e8 51 3d 2e 3a 01 be
       0.0983843 0.13267732 0.051246822 -0.1261985
0003c0 65 cd 6a 3d 36 03 e0 bd 6d 8e 9e bd 87 68 bd bd
       0.057324786 -0.109381124 -0.07742009 -0.09248453
0003d0 b7 fa b8 bd b0 52 01 3e 85 22 19 3e d0 11 92 bd
       -0.09032195 0.12629199 0.14954574 -0.07132304
0003e0 a9 a7 0d 3e c2 4c c5 3d a0 15 9e bd 9b 45 0f 3c
       0.13833489 0.09633781 -0.077189684 0.008744623
0003f0 e5 86 90 3d b7 54 11 be 9e 00 22 bd 6e 73 3a 3d
       0.07056979 -0.14192472 -0.03955137 0.04552024
