Emotions/opensmile_preds/AttenVec/MSP-IMPROV/Model/atten_w1_val.npy (npy, 67728 bytes, 1 tensors)

array f4 [130, 130]
000000 93 fe 86 bd fc d1 79 bd 53 42 32 3d 1d fe 15 be
       -0.06591525 -0.060991272 0.043520283 -0.14647718
000010 46 7f 35 3b a0 6c c8 bb 18 cb 47 bc 03 7a be bd
       0.002769427 -0.0061164647 -0.012194417 -0.09300616
000020 b7 aa 80 bb f9 3a 08 be 1d e6 33 bd 9c b3 b9 3d
       -0.003926601 -0.13303746 -0.043920625 0.09067461
000030 3d df 6c 3c 87 3e cf 3d 24 04 b7 bd e0 a1 07 be
       0.014457521 0.10119348 -0.08936337 -0.13245344
000040 d1 6b 28 3c 95 46 d5 3d 17 c6 98 bd a9 e8 f6 3d
       0.010279612 0.10413853 -0.07459658 0.12056095
000050 63 be 93 bd 5f fe 9f 3c 96 c9 2f bd 62 71 a7 bd
       -0.07214048 0.019530473 -0.042916857 -0.08175923
000060 12 e9 84 bd a7 83 5d 3d ea 17 1d 3d d6 4a c2 3d
       -0.06489767 0.05408063 0.038352884 0.0948693
000070 69 c1 cc 3d e0 bb 43 3d 6e 31 ba 3d fb 6b a7 3d
       0.099978276 0.047786593 0.09091459 0.081748925
000080 f2 b1 b0 3d 23 60 05 3c 29 25 b2 3d a7 12 d7 bb
       0.086276904 0.008140597 0.08698494 -0.006563503
000090 da c5 9d 3d 9d 17 93 bd ab c7 ec 3c 51 0a 09 3e
       0.07703753 -0.07182238 0.028903803 0.13382842
0000a0 6a 52 18 bb 43 5a 54 bc e4 d5 dc 3d ea 43 f4 3d
       -0.0023242482 -0.012960973 0.10782984 0.11927016
0000b0 ce db c0 bd c1 07 8a 3c 23 ee 06 be 3a 53 26 bd
       -0.094169244 0.0168494 -0.1317678 -0.040606715
0000c0 45 46 38 bd ca 12 b1 bd 6c f6 9c 3d 67 e1 1b 3e
       -0.04498889 -0.08646162 0.07664189 0.15222703
0000d0 d2 27 f6 3d 47 4a 54 3d 9d 83 0c be 64 38 d5 3c
       0.12019314 0.05182865 -0.13722081 0.026027866
0000e0 26 d1 e5 3d ae ca d3 bc 58 55 d2 bc 06 c6 14 3e
       0.112215325 -0.025853481 -0.02567546 0.14528665
0000f0 e0 8f a8 bd 39 6c 06 3e 47 25 95 3d fb eb f9 bd
       -0.08230567 0.13127221 0.07282501 -0.12203213
000100 a8 6f 83 3d aa ec f4 bd 92 f1 e2 bd 00 30 f2 3d
       0.06417781 -0.119592026 -0.11081232 0.118255615
000110 2a d4 49 bd 9b 03 54 3d 48 e1 0c bc 31 57 08 be
       -0.0492746 0.05176125 -0.008598633 -0.13314511
000120 1f 24 bc 3c 39 03 0e 3e 7e 3f 42 bd 34 69 b2 3c
       0.022966443 0.13868417 -0.047423832 0.02177868
000130 15 d0 00 3d 59 ce 12 bd 76 e9 f7 bd 81 fc 0b be
       0.031448442 -0.03584132 -0.12105076 -0.13670541
000140 48 98 06 3e 5f 64 82 3d 99 c6 e5 3d e0 99 2c bd
       0.13144028 0.063668005 0.1121952 -0.042138934
000150 e7 d1 07 3e 5f 3b ba bd 20 81 2f bd cf be 6b bc
       0.13263665 -0.090933554 -0.042847753 -0.014388754
000160 c1 56 00 be 23 e7 45 3d 60 07 a5 3c 0d 84 a0 bc
       -0.12533094 0.048316132 0.020145118 -0.019594217
000170 db 00 af bc 40 56 34 3d ab cd a0 bd b2 cc c6 3d
       -0.021362713 0.044027567 -0.07851728 0.09707011
000180 19 e3 b1 3d ee 95 d4 3c e3 96 27 bd 47 a5 4a 3d
       0.086858936 0.025950398 -0.04091538 0.049474027
000190 5f b4 2a bc 09 f9 07 bd fe 0a 13 be a6 47 1d 3c
       -0.01041898 -0.033196483 -0.14359662 0.009599602
0001a0 36 75 e3 bd b2 d3 66 bd 9b 42 18 3e 88 4c b5 bd
       -0.111063406 -0.056354232 0.14869158 -0.08852488
0001b0 9c f8 c4 bd 02 b0 f5 3d f6 8d 04 be a3 4b 3c bd
       -0.09617731 0.119964615 -0.12944779 -0.04597057
0001c0 0b 0c 48 3d 2d 38 0a 3e 9a 8f 95 3d 71 19 18 3e
       0.04883961 0.13497992 0.073027804 0.14853455
0001d0 50 b1 e1 3d 78 72 08 be c8 de 0d be 55 e6 71 bd
       0.11020148 -0.13324916 -0.13854516 -0.059057552
0001e0 fe 2b b9 3d 90 06 c9 bd 3d 37 b1 3d fa 4a 88 bb
       0.09041594 -0.09815705 0.08653114 -0.0041593285
0001f0 57 74 96 3d 47 4e 01 be 36 4d 14 3e de 10 18 3d
       0.07346409 -0.12627517 0.14482579 0.03712546
000200 6d 9c f8 bc 01 3f d8 3d fe 39 f5 3d 58 9d 96 bc
       -0.030348027 0.10558892 0.11973952 -0.018385574
000210 86 46 84 3d 57 c6 fa 3d d3 1a e5 3c 3d 74 a4 bc
       0.06458764 0.122448616 0.027966892 -0.020074958
000220 f6 3e 1a bc 37 1b 24 bc 40 b4 d9 bd d5 f3 00 3e
       -0.009414425 -0.010016254 -0.10630083 0.12593015
000230 d8 e3 36 bd e2 cd 30 bd b3 c7 5d bb 9c e3 09 3e
       -0.044650882 -0.043165095 -0.0033840954 0.13465732
000240 06 5c bf 3d 29 43 b2 3c cd a2 5f bd 3e c9 75 3d
       0.09343724 0.02176054 -0.05459862 0.060006373
000250 55 d4 01 be 58 e4 7e 3d b4 4f 5a 3d 59 70 62 3d
       -0.12678654 0.062229484 0.053298667 0.055282924
000260 8c 8e 02 be 55 06 4b bc 2c a7 82 bb 6f e8 6b 3d
       -0.1274969 -0.012391646 -0.0039872136 0.057594713
000270 b4 d9 08 3e b7 dc 09 be eb 8a 42 bd 6c 0b c5 bd
       0.13364297 -0.13463102 -0.047495764 -0.09621319
000280 68 dc ee 3d 43 f1 65 3d 4d e7 d1 bd a4 25 11 bd
       0.11663133 0.05613829 -0.10249195 -0.035436288
000290 3c 91 f8 3c ac ad fc bd d3 e6 03 bb 8a 96 ad 3d
       0.03034269 -0.12337813 -0.0020126596 0.08475979
0002a0 5b f4 46 3d 6e 77 18 be 1a 90 a0 3c 71 69 14 be
       0.04857288 -0.14889309 0.019599963 -0.14493348
0002b0 1f f1 b8 3d e5 74 d6 3d 1d a7 36 bc 44 35 1a bd
       0.09030365 0.104715146 -0.011148241 -0.037648454
0002c0 f6 e4 03 be f9 27 1c bd 50 cf 1b be 92 d0 bd 3d
       -0.1288031 -0.03812406 -0.15215802 0.09268297
0002d0 13 51 96 3d fd f8 ea bd c6 3f 12 3e be ee f2 bc
       0.073396824 -0.11473272 0.1428214 -0.029654857
0002e0 ed 44 4d 3d f0 94 47 3d e8 af 2b 3d db 0a b2 3d
       0.05011456 0.048726022 0.041915804 0.08693477
0002f0 6e 6d 1a be 4a 62 a5 bc 4c c8 24 bd 4c 8a 0f 3d
       -0.15080807 -0.02018847 -0.04023008 0.035044
000300 f5 dc 5e bd 5c 7c 01 be 01 49 15 3e e0 66 88 bd
       -0.05440994 -0.12645096 0.1457863 -0.06660247
000310 19 d1 87 3d a9 24 16 3d c3 2a 99 bd c0 6a 80 3d
       0.06631679 0.036656056 -0.07478859 0.06270361
000320 9f e3 81 3d ad 6c cd bd c8 29 8b bb e0 14 ac 3d
       0.063422434 -0.10030494 -0.004246924 0.08402419
000330 5f f2 71 bc 2e f9 00 3c d4 12 1c 3d f0 32 f2 3b
       -0.014767258 0.007871909 0.038103893 0.007391326
000340 c2 c3 f2 3d 8b a6 d2 bd 44 87 05 3e d5 42 8d bc
       0.11853744 -0.10285672 0.13039881 -0.017243782
000350 bb e2 03 be c4 85 ae bc 0e 56 db 3d 51 5c 33 3d
       -0.1287946 -0.021304019 0.10709773 0.04378921
000360 9b d1 bc bd ec 8e 9a 3d b8 d1 45 3d 86 ce 1d be
       -0.092196666 0.075467914 0.048295707 -0.15410814
000370 19 45 20 bd 6e f8 35 3d d8 f3 93 bc 67 4b fb 3d
       -0.039128397 0.044426374 -0.01806061 0.12270241
000380 70 5a 6a bd c4 59 a4 3c eb b2 06 3e 1d ad 44 bd
       -0.057215154 0.020062335 0.1315419 -0.048016656
000390 13 56 f9 bd d2 83 61 bc 1d a6 45 3c 0a c6 8e bc
       -0.121746205 -0.013764339 0.01206353 -0.017428417
0003a0 aa d3 72 3d 6b 25 d0 bd 20 41 a4 3c 87 90 f1 3d
       0.05928389 -0.10163387 0.020050585 0.117951445
0003b0 67 b8 0e be 8e 87 93 bd 30 3c 95 3d 4d f7 ad bd
       -0.13937531 -0.072035894 0.072868705 -0.084944345
0003c0 71 a1 b2 bc ae 6c ce 3d 20 4c c6 3d 66 56 c2 bd
       -0.021805497 0.10079323 0.096824884 -0.094891354
0003d0 61 82 1e bc 4c 58 9b bd 4c 9c f4 bc 71 1e 0a 3e
       -0.009674639 -0.07585201 -0.029859684 0.13488175
0003e0 ec 09 02 bd a2 98 12 be 3a 0b 14 3e 8b 28 f0 3d
       -0.031747743 -0.14316037 0.14457408 0.11726483
0003f0 75 6b bc 3c 04 2a d0 3d 02 f5 3a 3c fd 5e 96 bd
       0.023000458 0.10164264 0.0114109535 -0.07342336
